…
[01/15 16:24:10 TiTok]: ===================================================================================================================================================================================================
Layer (type:depth-idx)                        Input Shape               Output Shape              Param #                   Param %                   Kernel Shape              Mult-Adds
===================================================================================================================================================================================================
TiTok                                         [1, 3, 256, 256]          [1, 1024, 16, 16]         65,536                      0.12%                   --                        --
├─TiTokEncoder: 1-1                           --                        [1, 12, 1, 128]           197,632                     0.37%                   --                        --
│    └─Conv2d: 2-1                            [1, 3, 256, 256]          [1, 512, 16, 16]          393,728                     0.74%                   [16, 16]                  100,794,368
│    └─LayerNorm: 2-2                         [1, 385, 512]             [1, 385, 512]             1,024                       0.00%                   --                        1,024
│    └─ModuleList: 2-3                        --                        --                        --                             --                   --                        --
│    │    └─ResidualAttentionBlock: 3-1       [385, 1, 512]             [385, 1, 512]             --                             --                   --                        --
│    │    │    └─LayerNorm: 4-1               [385, 1, 512]             [385, 1, 512]             1,024                       0.00%                   --                        394,240
│    │    │    └─MultiheadAttention: 4-2      [385, 1, 512]             [385, 1, 512]             1,050,624                   1.98%                   --                        --
│    │    │    └─LayerNorm: 4-3               [385, 1, 512]             [385, 1, 512]             1,024                       0.00%                   --                        394,240
│    │    │    └─Sequential: 4-4              [385, 1, 512]             [385, 1, 512]             --                             --                   --                        --
│    │    │    │    └─Linear: 5-1             [385, 1, 512]             [385, 1, 2048]            1,050,624                   1.98%                   --                        404,490,240
│    │    │    │    └─GELU: 5-2               [385, 1, 2048]            [385, 1, 2048]            --                             --                   --                        --
│    │    │    │    └─Linear: 5-3             [385, 1, 2048]            [385, 1, 512]             1,049,088                   1.98%                   --                        403,898,880
│    │    └─ResidualAttentionBlock: 3-2       [385, 1, 512]             [385, 1, 512]             --                             --                   --                        --
│    │    │    └─LayerNorm: 4-5               [385, 1, 512]             [385, 1, 512]             1,024                       0.00%                   --                        394,240
│    │    │    └─MultiheadAttention: 4-6      [385, 1, 512]             [385, 1, 512]             1,050,624                   1.98%                   --                        --
│    │    │    └─LayerNorm: 4-7               [385, 1, 512]             [385, 1, 512]             1,024                       0.00%                   --                        394,240
│    │    │    └─Sequential: 4-8              [385, 1, 512]             [385, 1, 512]             --                             --                   --                        --
│    │    │    │    └─Linear: 5-4             [385, 1, 512]             [385, 1, 2048]            1,050,624                   1.98%                   --                        404,490,240
│    │    │    │    └─GELU: 5-5               [385, 1, 2048]            [385, 1, 2048]            --                             --                   --                        --
│    │    │    │    └─Linear: 5-6             [385, 1, 2048]            [385, 1, 512]             1,049,088                   1.98%                   --                        403,898,880
│    │    └─ResidualAttentionBlock: 3-3       [385, 1, 512]             [385, 1, 512]             --                             --                   --                        --
│    │    │    └─LayerNorm: 4-9               [385, 1, 512]             [385, 1, 512]             1,024                       0.00%                   --                        394,240
│    │    │    └─MultiheadAttention: 4-10     [385, 1, 512]             [385, 1, 512]             1,050,624                   1.98%                   --                        --
│    │    │    └─LayerNorm: 4-11              [385, 1, 512]             [385, 1, 512]             1,024                       0.00%                   --                        394,240
│    │    │    └─Sequential: 4-12             [385, 1, 512]             [385, 1, 512]             --                             --                   --                        --
│    │    │    │    └─Linear: 5-7             [385, 1, 512]             [385, 1, 2048]            1,050,624                   1.98%                   --                        404,490,240
│    │    │    │    └─GELU: 5-8               [385, 1, 2048]            [385, 1, 2048]            --                             --                   --                        --
│    │    │    │    └─Linear: 5-9             [385, 1, 2048]            [385, 1, 512]             1,049,088                   1.98%                   --                        403,898,880
│    │    └─ResidualAttentionBlock: 3-4       [385, 1, 512]             [385, 1, 512]             --                             --                   --                        --
│    │    │    └─LayerNorm: 4-13              [385, 1, 512]             [385, 1, 512]             1,024                       0.00%                   --                        394,240
│    │    │    └─MultiheadAttention: 4-14     [385, 1, 512]             [385, 1, 512]             1,050,624                   1.98%                   --                        --
│    │    │    └─LayerNorm: 4-15              [385, 1, 512]             [385, 1, 512]             1,024                       0.00%                   --                        394,240
│    │    │    └─Sequential: 4-16             [385, 1, 512]             [385, 1, 512]             --                             --                   --                        --
│    │    │    │    └─Linear: 5-10            [385, 1, 512]             [385, 1, 2048]            1,050,624                   1.98%                   --                        404,490,240
│    │    │    │    └─GELU: 5-11              [385, 1, 2048]            [385, 1, 2048]            --                             --                   --                        --
│    │    │    │    └─Linear: 5-12            [385, 1, 2048]            [385, 1, 512]             1,049,088                   1.98%                   --                        403,898,880
│    │    └─ResidualAttentionBlock: 3-5       [385, 1, 512]             [385, 1, 512]             --                             --                   --                        --
│    │    │    └─LayerNorm: 4-17              [385, 1, 512]             [385, 1, 512]             1,024                       0.00%                   --                        394,240
│    │    │    └─MultiheadAttention: 4-18     [385, 1, 512]             [385, 1, 512]             1,050,624                   1.98%                   --                        --
│    │    │    └─LayerNorm: 4-19              [385, 1, 512]             [385, 1, 512]             1,024                       0.00%                   --                        394,240
│    │    │    └─Sequential: 4-20             [385, 1, 512]             [385, 1, 512]             --                             --                   --                        --
│    │    │    │    └─Linear: 5-13            [385, 1, 512]             [385, 1, 2048]            1,050,624                   1.98%                   --                        404,490,240
│    │    │    │    └─GELU: 5-14              [385, 1, 2048]            [385, 1, 2048]            --                             --                   --                        --
│    │    │    │    └─Linear: 5-15            [385, 1, 2048]            [385, 1, 512]             1,049,088                   1.98%                   --                        403,898,880
│    │    └─ResidualAttentionBlock: 3-6       [385, 1, 512]             [385, 1, 512]             --                             --                   --                        --
│    │    │    └─LayerNorm: 4-21              [385, 1, 512]             [385, 1, 512]             1,024                       0.00%                   --                        394,240
│    │    │    └─MultiheadAttention: 4-22     [385, 1, 512]             [385, 1, 512]             1,050,624                   1.98%                   --                        --
│    │    │    └─LayerNorm: 4-23              [385, 1, 512]             [385, 1, 512]             1,024                       0.00%                   --                        394,240
│    │    │    └─Sequential: 4-24             [385, 1, 512]             [385, 1, 512]             --                             --                   --                        --
│    │    │    │    └─Linear: 5-16            [385, 1, 512]             [385, 1, 2048]            1,050,624                   1.98%                   --                        404,490,240
│    │    │    │    └─GELU: 5-17              [385, 1, 2048]            [385, 1, 2048]            --                             --                   --                        --
│    │    │    │    └─Linear: 5-18            [385, 1, 2048]            [385, 1, 512]             1,049,088                   1.98%                   --                        403,898,880
│    │    └─ResidualAttentionBlock: 3-7       [385, 1, 512]             [385, 1, 512]             --                             --                   --                        --
│    │    │    └─LayerNorm: 4-25              [385, 1, 512]             [385, 1, 512]             1,024                       0.00%                   --                        394,240
│    │    │    └─MultiheadAttention: 4-26     [385, 1, 512]             [385, 1, 512]             1,050,624                   1.98%                   --                        --
│    │    │    └─LayerNorm: 4-27              [385, 1, 512]             [385, 1, 512]             1,024                       0.00%                   --                        394,240
│    │    │    └─Sequential: 4-28             [385, 1, 512]             [385, 1, 512]             --                             --                   --                        --
│    │    │    │    └─Linear: 5-19            [385, 1, 512]             [385, 1, 2048]            1,050,624                   1.98%                   --                        404,490,240
│    │    │    │    └─GELU: 5-20              [385, 1, 2048]            [385, 1, 2048]            --                             --                   --                        --
│    │    │    │    └─Linear: 5-21            [385, 1, 2048]            [385, 1, 512]             1,049,088                   1.98%                   --                        403,898,880
│    │    └─ResidualAttentionBlock: 3-8       [385, 1, 512]             [385, 1, 512]             --                             --                   --                        --
│    │    │    └─LayerNorm: 4-29              [385, 1, 512]             [385, 1, 512]             1,024                       0.00%                   --                        394,240
│    │    │    └─MultiheadAttention: 4-30     [385, 1, 512]             [385, 1, 512]             1,050,624                   1.98%                   --                        --
│    │    │    └─LayerNorm: 4-31              [385, 1, 512]             [385, 1, 512]             1,024                       0.00%                   --                        394,240
│    │    │    └─Sequential: 4-32             [385, 1, 512]             [385, 1, 512]             --                             --                   --                        --
│    │    │    │    └─Linear: 5-22            [385, 1, 512]             [385, 1, 2048]            1,050,624                   1.98%                   --                        404,490,240
│    │    │    │    └─GELU: 5-23              [385, 1, 2048]            [385, 1, 2048]            --                             --                   --                        --
│    │    │    │    └─Linear: 5-24            [385, 1, 2048]            [385, 1, 512]             1,049,088                   1.98%                   --                        403,898,880
│    └─LayerNorm: 2-4                         [1, 128, 512]             [1, 128, 512]             1,024                       0.00%                   --                        1,024
│    └─Conv2d: 2-5                            [1, 512, 128, 1]          [1, 12, 128, 1]           6,156                       0.01%                   [1, 1]                    787,968
├─VectorQuantizer: 1-2                        [1, 12, 1, 128]           [1, 12, 1, 128]           --                             --                   --                        --
│    └─Embedding: 2-6                         [128]                     [128, 12]                 49,152                      0.09%                   --                        6,291,456
├─TiTokDecoder: 1-3                           [1, 12, 1, 128]           [1, 1024, 16, 16]         198,144                     0.37%                   --                        --
│    └─Linear: 2-7                            [1, 128, 12]              [1, 128, 512]             6,656                       0.01%                   --                        6,656
│    └─LayerNorm: 2-8                         [1, 385, 512]             [1, 385, 512]             1,024                       0.00%                   --                        1,024
│    └─ModuleList: 2-9                        --                        --                        --                             --                   --                        --
│    │    └─ResidualAttentionBlock: 3-9       [385, 1, 512]             [385, 1, 512]             --                             --                   --                        --
│    │    │    └─LayerNorm: 4-33              [385, 1, 512]             [385, 1, 512]             1,024                       0.00%                   --                        394,240
│    │    │    └─MultiheadAttention: 4-34     [385, 1, 512]             [385, 1, 512]             1,050,624                   1.98%                   --                        --
│    │    │    └─LayerNorm: 4-35              [385, 1, 512]             [385, 1, 512]             1,024                       0.00%                   --                        394,240
│    │    │    └─Sequential: 4-36             [385, 1, 512]             [385, 1, 512]             --                             --                   --                        --
│    │    │    │    └─Linear: 5-25            [385, 1, 512]             [385, 1, 2048]            1,050,624                   1.98%                   --                        404,490,240
│    │    │    │    └─GELU: 5-26              [385, 1, 2048]            [385, 1, 2048]            --                             --                   --                        --
│    │    │    │    └─Linear: 5-27            [385, 1, 2048]            [385, 1, 512]             1,049,088                   1.98%                   --                        403,898,880
│    │    └─ResidualAttentionBlock: 3-10      [385, 1, 512]             [385, 1, 512]             --                             --                   --                        --
│    │    │    └─LayerNorm: 4-37              [385, 1, 512]             [385, 1, 512]             1,024                       0.00%                   --                        394,240
│    │    │    └─MultiheadAttention: 4-38     [385, 1, 512]             [385, 1, 512]             1,050,624                   1.98%                   --                        --
│    │    │    └─LayerNorm: 4-39              [385, 1, 512]             [385, 1, 512]             1,024                       0.00%                   --                        394,240
│    │    │    └─Sequential: 4-40             [385, 1, 512]             [385, 1, 512]             --                             --                   --                        --
│    │    │    │    └─Linear: 5-28            [385, 1, 512]             [385, 1, 2048]            1,050,624                   1.98%                   --                        404,490,240
│    │    │    │    └─GELU: 5-29              [385, 1, 2048]            [385, 1, 2048]            --                             --                   --                        --
│    │    │    │    └─Linear: 5-30            [385, 1, 2048]            [385, 1, 512]             1,049,088                   1.98%                   --                        403,898,880
│    │    └─ResidualAttentionBlock: 3-11      [385, 1, 512]             [385, 1, 512]             --                             --                   --                        --
│    │    │    └─LayerNorm: 4-41              [385, 1, 512]             [385, 1, 512]             1,024                       0.00%                   --                        394,240
│    │    │    └─MultiheadAttention: 4-42     [385, 1, 512]             [385, 1, 512]             1,050,624                   1.98%                   --                        --
│    │    │    └─LayerNorm: 4-43              [385, 1, 512]             [385, 1, 512]             1,024                       0.00%                   --                        394,240
│    │    │    └─Sequential: 4-44             [385, 1, 512]             [385, 1, 512]             --                             --                   --                        --
│    │    │    │    └─Linear: 5-31            [385, 1, 512]             [385, 1, 2048]            1,050,624                   1.98%                   --                        404,490,240
│    │    │    │    └─GELU: 5-32              [385, 1, 2048]            [385, 1, 2048]            --                             --                   --                        --
│    │    │    │    └─Linear: 5-33            [385, 1, 2048]            [385, 1, 512]             1,049,088                   1.98%                   --                        403,898,880
│    │    └─ResidualAttentionBlock: 3-12      [385, 1, 512]             [385, 1, 512]             --                             --                   --                        --
│    │    │    └─LayerNorm: 4-45              [385, 1, 512]             [385, 1, 512]             1,024                       0.00%                   --                        394,240
│    │    │    └─MultiheadAttention: 4-46     [385, 1, 512]             [385, 1, 512]             1,050,624                   1.98%                   --                        --
│    │    │    └─LayerNorm: 4-47              [385, 1, 512]             [385, 1, 512]             1,024                       0.00%                   --                        394,240
│    │    │    └─Sequential: 4-48             [385, 1, 512]             [385, 1, 512]             --                             --                   --                        --
│    │    │    │    └─Linear: 5-34            [385, 1, 512]             [385, 1, 2048]            1,050,624                   1.98%                   --                        404,490,240
│    │    │    │    └─GELU: 5-35              [385, 1, 2048]            [385, 1, 2048]            --                             --                   --                        --
│    │    │    │    └─Linear: 5-36            [385, 1, 2048]            [385, 1, 512]             1,049,088                   1.98%                   --                        403,898,880
│    │    └─ResidualAttentionBlock: 3-13      [385, 1, 512]             [385, 1, 512]             --                             --                   --                        --
│    │    │    └─LayerNorm: 4-49              [385, 1, 512]             [385, 1, 512]             1,024                       0.00%                   --                        394,240
│    │    │    └─MultiheadAttention: 4-50     [385, 1, 512]             [385, 1, 512]             1,050,624                   1.98%                   --                        --
│    │    │    └─LayerNorm: 4-51              [385, 1, 512]             [385, 1, 512]             1,024                       0.00%                   --                        394,240
│    │    │    └─Sequential: 4-52             [385, 1, 512]             [385, 1, 512]             --                             --                   --                        --
│    │    │    │    └─Linear: 5-37            [385, 1, 512]             [385, 1, 2048]            1,050,624                   1.98%                   --                        404,490,240
│    │    │    │    └─GELU: 5-38              [385, 1, 2048]            [385, 1, 2048]            --                             --                   --                        --
│    │    │    │    └─Linear: 5-39            [385, 1, 2048]            [385, 1, 512]             1,049,088                   1.98%                   --                        403,898,880
│    │    └─ResidualAttentionBlock: 3-14      [385, 1, 512]             [385, 1, 512]             --                             --                   --                        --
│    │    │    └─LayerNorm: 4-53              [385, 1, 512]             [385, 1, 512]             1,024                       0.00%                   --                        394,240
│    │    │    └─MultiheadAttention: 4-54     [385, 1, 512]             [385, 1, 512]             1,050,624                   1.98%                   --                        --
│    │    │    └─LayerNorm: 4-55              [385, 1, 512]             [385, 1, 512]             1,024                       0.00%                   --                        394,240
│    │    │    └─Sequential: 4-56             [385, 1, 512]             [385, 1, 512]             --                             --                   --                        --
│    │    │    │    └─Linear: 5-40            [385, 1, 512]             [385, 1, 2048]            1,050,624                   1.98%                   --                        404,490,240
│    │    │    │    └─GELU: 5-41              [385, 1, 2048]            [385, 1, 2048]            --                             --                   --                        --
│    │    │    │    └─Linear: 5-42            [385, 1, 2048]            [385, 1, 512]             1,049,088                   1.98%                   --                        403,898,880
│    │    └─ResidualAttentionBlock: 3-15      [385, 1, 512]             [385, 1, 512]             --                             --                   --                        --
│    │    │    └─LayerNorm: 4-57              [385, 1, 512]             [385, 1, 512]             1,024                       0.00%                   --                        394,240
│    │    │    └─MultiheadAttention: 4-58     [385, 1, 512]             [385, 1, 512]             1,050,624                   1.98%                   --                        --
│    │    │    └─LayerNorm: 4-59              [385, 1, 512]             [385, 1, 512]             1,024                       0.00%                   --                        394,240
│    │    │    └─Sequential: 4-60             [385, 1, 512]             [385, 1, 512]             --                             --                   --                        --
│    │    │    │    └─Linear: 5-43            [385, 1, 512]             [385, 1, 2048]            1,050,624                   1.98%                   --                        404,490,240
│    │    │    │    └─GELU: 5-44              [385, 1, 2048]            [385, 1, 2048]            --                             --                   --                        --
│    │    │    │    └─Linear: 5-45            [385, 1, 2048]            [385, 1, 512]             1,049,088                   1.98%                   --                        403,898,880
│    │    └─ResidualAttentionBlock: 3-16      [385, 1, 512]             [385, 1, 512]             --                             --                   --                        --
│    │    │    └─LayerNorm: 4-61              [385, 1, 512]             [385, 1, 512]             1,024                       0.00%                   --                        394,240
│    │    │    └─MultiheadAttention: 4-62     [385, 1, 512]             [385, 1, 512]             1,050,624                   1.98%                   --                        --
│    │    │    └─LayerNorm: 4-63              [385, 1, 512]             [385, 1, 512]             1,024                       0.00%                   --                        394,240
│    │    │    └─Sequential: 4-64             [385, 1, 512]             [385, 1, 512]             --                             --                   --                        --
│    │    │    │    └─Linear: 5-46            [385, 1, 512]             [385, 1, 2048]            1,050,624                   1.98%                   --                        404,490,240
│    │    │    │    └─GELU: 5-47              [385, 1, 2048]            [385, 1, 2048]            --                             --                   --                        --
│    │    │    │    └─Linear: 5-48            [385, 1, 2048]            [385, 1, 512]             1,049,088                   1.98%                   --                        403,898,880
│    └─LayerNorm: 2-10                        [1, 256, 512]             [1, 256, 512]             1,024                       0.00%                   --                        1,024
│    └─Sequential: 2-11                       [1, 512, 16, 16]          [1, 1024, 16, 16]         --                             --                   --                        --
│    │    └─Conv2d: 3-17                      [1, 512, 16, 16]          [1, 1024, 16, 16]         525,312                     0.99%                   [1, 1]                    134,479,872
│    │    └─Tanh: 3-18                        [1, 1024, 16, 16]         [1, 1024, 16, 16]         --                             --                   --                        --
│    │    └─Conv2d: 3-19                      [1, 1024, 16, 16]         [1, 1024, 16, 16]         1,049,600                   1.98%                   [1, 1]                    268,697,600
│    └─Identity: 2-12                         [1, 1024, 16, 16]         [1, 1024, 16, 16]         --                             --                   --                        --
===================================================================================================================================================================================================
Total params: 52,934,156
Trainable params: 52,934,156
Non-trainable params: 0
Total mult-adds (G): 13.46
===================================================================================================================================================================================================
…
