…
========================================================================================================================================================================================================
Layer (type:depth-idx)                             Input Shape               Output Shape              Param #                   Param %                   Kernel Shape              Mult-Adds
========================================================================================================================================================================================================
TiTok                                              [1, 3, 256, 256]          [1, 1024, 16, 16]         131,072                     0.02%                   --                        --
├─TiTokEncoder: 1-1                                --                        [1, 12, 1, 128]           395,264                     0.06%                   --                        --
│    └─Conv2d: 2-1                                 [1, 3, 256, 256]          [1, 1024, 16, 16]         787,456                     0.13%                   [16, 16]                  201,588,736
│    └─LayerNorm: 2-2                              [1, 385, 1024]            [1, 385, 1024]            2,048                       0.00%                   --                        2,048
│    └─ModuleList: 2-3                             --                        --                        --                             --                   --                        --
│    │    └─ResidualAttentionBlock: 3-1            [385, 1, 1024]            [385, 1, 1024]            --                             --                   --                        --
│    │    │    └─LayerNorm: 4-1                    [385, 1, 1024]            [385, 1, 1024]            2,048                       0.00%                   --                        788,480
│    │    │    └─MultiheadAttention: 4-2           [385, 1, 1024]            [385, 1, 1024]            4,198,400                   0.69%                   --                        --
│    │    │    └─LayerNorm: 4-3                    [385, 1, 1024]            [385, 1, 1024]            2,048                       0.00%                   --                        788,480
│    │    │    └─Sequential: 4-4                   [385, 1, 1024]            [385, 1, 1024]            --                             --                   --                        --
│    │    │    │    └─Linear: 5-1                  [385, 1, 1024]            [385, 1, 4096]            4,198,400                   0.69%                   --                        1,616,384,000
│    │    │    │    └─GELU: 5-2                    [385, 1, 4096]            [385, 1, 4096]            --                             --                   --                        --
│    │    │    │    └─Linear: 5-3                  [385, 1, 4096]            [385, 1, 1024]            4,195,328                   0.69%                   --                        1,615,201,280
│    │    └─ResidualAttentionBlock: 3-2            [385, 1, 1024]            [385, 1, 1024]            --                             --                   --                        --
│    │    │    └─LayerNorm: 4-5                    [385, 1, 1024]            [385, 1, 1024]            2,048                       0.00%                   --                        788,480
│    │    │    └─MultiheadAttention: 4-6           [385, 1, 1024]            [385, 1, 1024]            4,198,400                   0.69%                   --                        --
│    │    │    └─LayerNorm: 4-7                    [385, 1, 1024]            [385, 1, 1024]            2,048                       0.00%                   --                        788,480
│    │    │    └─Sequential: 4-8                   [385, 1, 1024]            [385, 1, 1024]            --                             --                   --                        --
│    │    │    │    └─Linear: 5-4                  [385, 1, 1024]            [385, 1, 4096]            4,198,400                   0.69%                   --                        1,616,384,000
│    │    │    │    └─GELU: 5-5                    [385, 1, 4096]            [385, 1, 4096]            --                             --                   --                        --
│    │    │    │    └─Linear: 5-6                  [385, 1, 4096]            [385, 1, 1024]            4,195,328                   0.69%                   --                        1,615,201,280
│    │    └─ResidualAttentionBlock: 3-3            [385, 1, 1024]            [385, 1, 1024]            --                             --                   --                        --
│    │    │    └─LayerNorm: 4-9                    [385, 1, 1024]            [385, 1, 1024]            2,048                       0.00%                   --                        788,480
│    │    │    └─MultiheadAttention: 4-10          [385, 1, 1024]            [385, 1, 1024]            4,198,400                   0.69%                   --                        --
│    │    │    └─LayerNorm: 4-11                   [385, 1, 1024]            [385, 1, 1024]            2,048                       0.00%                   --                        788,480
│    │    │    └─Sequential: 4-12                  [385, 1, 1024]            [385, 1, 1024]            --                             --                   --                        --
│    │    │    │    └─Linear: 5-7                  [385, 1, 1024]            [385, 1, 4096]            4,198,400                   0.69%                   --                        1,616,384,000
│    │    │    │    └─GELU: 5-8                    [385, 1, 4096]            [385, 1, 4096]            --                             --                   --                        --
│    │    │    │    └─Linear: 5-9                  [385, 1, 4096]            [385, 1, 1024]            4,195,328                   0.69%                   --                        1,615,201,280
│    │    └─ResidualAttentionBlock: 3-4            [385, 1, 1024]            [385, 1, 1024]            --                             --                   --                        --
│    │    │    └─LayerNorm: 4-13                   [385, 1, 1024]            [385, 1, 1024]            2,048                       0.00%                   --                        788,480
│    │    │    └─MultiheadAttention: 4-14          [385, 1, 1024]            [385, 1, 1024]            4,198,400                   0.69%                   --                        --
│    │    │    └─LayerNorm: 4-15                   [385, 1, 1024]            [385, 1, 1024]            2,048                       0.00%                   --                        788,480
│    │    │    └─Sequential: 4-16                  [385, 1, 1024]            [385, 1, 1024]            --                             --                   --                        --
│    │    │    │    └─Linear: 5-10                 [385, 1, 1024]            [385, 1, 4096]            4,198,400                   0.69%                   --                        1,616,384,000
│    │    │    │    └─GELU: 5-11                   [385, 1, 4096]            [385, 1, 4096]            --                             --                   --                        --
│    │    │    │    └─Linear: 5-12                 [385, 1, 4096]            [385, 1, 1024]            4,195,328                   0.69%                   --                        1,615,201,280
│    │    └─ResidualAttentionBlock: 3-5            [385, 1, 1024]            [385, 1, 1024]            --                             --                   --                        --
│    │    │    └─LayerNorm: 4-17                   [385, 1, 1024]            [385, 1, 1024]            2,048                       0.00%                   --                        788,480
│    │    │    └─MultiheadAttention: 4-18          [385, 1, 1024]            [385, 1, 1024]            4,198,400                   0.69%                   --                        --
│    │    │    └─LayerNorm: 4-19                   [385, 1, 1024]            [385, 1, 1024]            2,048                       0.00%                   --                        788,480
│    │    │    └─Sequential: 4-20                  [385, 1, 1024]            [385, 1, 1024]            --                             --                   --                        --
│    │    │    │    └─Linear: 5-13                 [385, 1, 1024]            [385, 1, 4096]            4,198,400                   0.69%                   --                        1,616,384,000
│    │    │    │    └─GELU: 5-14                   [385, 1, 4096]            [385, 1, 4096]            --                             --                   --                        --
│    │    │    │    └─Linear: 5-15                 [385, 1, 4096]            [385, 1, 1024]            4,195,328                   0.69%                   --                        1,615,201,280
│    │    └─ResidualAttentionBlock: 3-6            [385, 1, 1024]            [385, 1, 1024]            --                             --                   --                        --
│    │    │    └─LayerNorm: 4-21                   [385, 1, 1024]            [385, 1, 1024]            2,048                       0.00%                   --                        788,480
│    │    │    └─MultiheadAttention: 4-22          [385, 1, 1024]            [385, 1, 1024]            4,198,400                   0.69%                   --                        --
│    │    │    └─LayerNorm: 4-23                   [385, 1, 1024]            [385, 1, 1024]            2,048                       0.00%                   --                        788,480
│    │    │    └─Sequential: 4-24                  [385, 1, 1024]            [385, 1, 1024]            --                             --                   --                        --
│    │    │    │    └─Linear: 5-16                 [385, 1, 1024]            [385, 1, 4096]            4,198,400                   0.69%                   --                        1,616,384,000
│    │    │    │    └─GELU: 5-17                   [385, 1, 4096]            [385, 1, 4096]            --                             --                   --                        --
│    │    │    │    └─Linear: 5-18                 [385, 1, 4096]            [385, 1, 1024]            4,195,328                   0.69%                   --                        1,615,201,280
│    │    └─ResidualAttentionBlock: 3-7            [385, 1, 1024]            [385, 1, 1024]            --                             --                   --                        --
│    │    │    └─LayerNorm: 4-25                   [385, 1, 1024]            [385, 1, 1024]            2,048                       0.00%                   --                        788,480
│    │    │    └─MultiheadAttention: 4-26          [385, 1, 1024]            [385, 1, 1024]            4,198,400                   0.69%                   --                        --
│    │    │    └─LayerNorm: 4-27                   [385, 1, 1024]            [385, 1, 1024]            2,048                       0.00%                   --                        788,480
│    │    │    └─Sequential: 4-28                  [385, 1, 1024]            [385, 1, 1024]            --                             --                   --                        --
│    │    │    │    └─Linear: 5-19                 [385, 1, 1024]            [385, 1, 4096]            4,198,400                   0.69%                   --                        1,616,384,000
│    │    │    │    └─GELU: 5-20                   [385, 1, 4096]            [385, 1, 4096]            --                             --                   --                        --
│    │    │    │    └─Linear: 5-21                 [385, 1, 4096]            [385, 1, 1024]            4,195,328                   0.69%                   --                        1,615,201,280
│    │    └─ResidualAttentionBlock: 3-8            [385, 1, 1024]            [385, 1, 1024]            --                             --                   --                        --
│    │    │    └─LayerNorm: 4-29                   [385, 1, 1024]            [385, 1, 1024]            2,048                       0.00%                   --                        788,480
│    │    │    └─MultiheadAttention: 4-30          [385, 1, 1024]            [385, 1, 1024]            4,198,400                   0.69%                   --                        --
│    │    │    └─LayerNorm: 4-31                   [385, 1, 1024]            [385, 1, 1024]            2,048                       0.00%                   --                        788,480
│    │    │    └─Sequential: 4-32                  [385, 1, 1024]            [385, 1, 1024]            --                             --                   --                        --
│    │    │    │    └─Linear: 5-22                 [385, 1, 1024]            [385, 1, 4096]            4,198,400                   0.69%                   --                        1,616,384,000
│    │    │    │    └─GELU: 5-23                   [385, 1, 4096]            [385, 1, 4096]            --                             --                   --                        --
│    │    │    │    └─Linear: 5-24                 [385, 1, 4096]            [385, 1, 1024]            4,195,328                   0.69%                   --                        1,615,201,280
│    │    └─ResidualAttentionBlock: 3-9            [385, 1, 1024]            [385, 1, 1024]            --                             --                   --                        --
│    │    │    └─LayerNorm: 4-33                   [385, 1, 1024]            [385, 1, 1024]            2,048                       0.00%                   --                        788,480
│    │    │    └─MultiheadAttention: 4-34          [385, 1, 1024]            [385, 1, 1024]            4,198,400                   0.69%                   --                        --
│    │    │    └─LayerNorm: 4-35                   [385, 1, 1024]            [385, 1, 1024]            2,048                       0.00%                   --                        788,480
│    │    │    └─Sequential: 4-36                  [385, 1, 1024]            [385, 1, 1024]            --                             --                   --                        --
│    │    │    │    └─Linear: 5-25                 [385, 1, 1024]            [385, 1, 4096]            4,198,400                   0.69%                   --                        1,616,384,000
│    │    │    │    └─GELU: 5-26                   [385, 1, 4096]            [385, 1, 4096]            --                             --                   --                        --
│    │    │    │    └─Linear: 5-27                 [385, 1, 4096]            [385, 1, 1024]            4,195,328                   0.69%                   --                        1,615,201,280
│    │    └─ResidualAttentionBlock: 3-10           [385, 1, 1024]            [385, 1, 1024]            --                             --                   --                        --
│    │    │    └─LayerNorm: 4-37                   [385, 1, 1024]            [385, 1, 1024]            2,048                       0.00%                   --                        788,480
│    │    │    └─MultiheadAttention: 4-38          [385, 1, 1024]            [385, 1, 1024]            4,198,400                   0.69%                   --                        --
│    │    │    └─LayerNorm: 4-39                   [385, 1, 1024]            [385, 1, 1024]            2,048                       0.00%                   --                        788,480
│    │    │    └─Sequential: 4-40                  [385, 1, 1024]            [385, 1, 1024]            --                             --                   --                        --
│    │    │    │    └─Linear: 5-28                 [385, 1, 1024]            [385, 1, 4096]            4,198,400                   0.69%                   --                        1,616,384,000
│    │    │    │    └─GELU: 5-29                   [385, 1, 4096]            [385, 1, 4096]            --                             --                   --                        --
│    │    │    │    └─Linear: 5-30                 [385, 1, 4096]            [385, 1, 1024]            4,195,328                   0.69%                   --                        1,615,201,280
│    │    └─ResidualAttentionBlock: 3-11           [385, 1, 1024]            [385, 1, 1024]            --                             --                   --                        --
│    │    │    └─LayerNorm: 4-41                   [385, 1, 1024]            [385, 1, 1024]            2,048                       0.00%                   --                        788,480
│    │    │    └─MultiheadAttention: 4-42          [385, 1, 1024]            [385, 1, 1024]            4,198,400                   0.69%                   --                        --
│    │    │    └─LayerNorm: 4-43                   [385, 1, 1024]            [385, 1, 1024]            2,048                       0.00%                   --                        788,480
│    │    │    └─Sequential: 4-44                  [385, 1, 1024]            [385, 1, 1024]            --                             --                   --                        --
│    │    │    │    └─Linear: 5-31                 [385, 1, 1024]            [385, 1, 4096]            4,198,400                   0.69%                   --                        1,616,384,000
│    │    │    │    └─GELU: 5-32                   [385, 1, 4096]            [385, 1, 4096]            --                             --                   --                        --
│    │    │    │    └─Linear: 5-33                 [385, 1, 4096]            [385, 1, 1024]            4,195,328                   0.69%                   --                        1,615,201,280
│    │    └─ResidualAttentionBlock: 3-12           [385, 1, 1024]            [385, 1, 1024]            --                             --                   --                        --
│    │    │    └─LayerNorm: 4-45                   [385, 1, 1024]            [385, 1, 1024]            2,048                       0.00%                   --                        788,480
│    │    │    └─MultiheadAttention: 4-46          [385, 1, 1024]            [385, 1, 1024]            4,198,400                   0.69%                   --                        --
│    │    │    └─LayerNorm: 4-47                   [385, 1, 1024]            [385, 1, 1024]            2,048                       0.00%                   --                        788,480
│    │    │    └─Sequential: 4-48                  [385, 1, 1024]            [385, 1, 1024]            --                             --                   --                        --
│    │    │    │    └─Linear: 5-34                 [385, 1, 1024]            [385, 1, 4096]            4,198,400                   0.69%                   --                        1,616,384,000
│    │    │    │    └─GELU: 5-35                   [385, 1, 4096]            [385, 1, 4096]            --                             --                   --                        --
│    │    │    │    └─Linear: 5-36                 [385, 1, 4096]            [385, 1, 1024]            4,195,328                   0.69%                   --                        1,615,201,280
│    │    └─ResidualAttentionBlock: 3-13           [385, 1, 1024]            [385, 1, 1024]            --                             --                   --                        --
│    │    │    └─LayerNorm: 4-49                   [385, 1, 1024]            [385, 1, 1024]            2,048                       0.00%                   --                        788,480
│    │    │    └─MultiheadAttention: 4-50          [385, 1, 1024]            [385, 1, 1024]            4,198,400                   0.69%                   --                        --
│    │    │    └─LayerNorm: 4-51                   [385, 1, 1024]            [385, 1, 1024]            2,048                       0.00%                   --                        788,480
│    │    │    └─Sequential: 4-52                  [385, 1, 1024]            [385, 1, 1024]            --                             --                   --                        --
│    │    │    │    └─Linear: 5-37                 [385, 1, 1024]            [385, 1, 4096]            4,198,400                   0.69%                   --                        1,616,384,000
│    │    │    │    └─GELU: 5-38                   [385, 1, 4096]            [385, 1, 4096]            --                             --                   --                        --
│    │    │    │    └─Linear: 5-39                 [385, 1, 4096]            [385, 1, 1024]            4,195,328                   0.69%                   --                        1,615,201,280
│    │    └─ResidualAttentionBlock: 3-14           [385, 1, 1024]            [385, 1, 1024]            --                             --                   --                        --
│    │    │    └─LayerNorm: 4-53                   [385, 1, 1024]            [385, 1, 1024]            2,048                       0.00%                   --                        788,480
│    │    │    └─MultiheadAttention: 4-54          [385, 1, 1024]            [385, 1, 1024]            4,198,400                   0.69%                   --                        --
│    │    │    └─LayerNorm: 4-55                   [385, 1, 1024]            [385, 1, 1024]            2,048                       0.00%                   --                        788,480
│    │    │    └─Sequential: 4-56                  [385, 1, 1024]            [385, 1, 1024]            --                             --                   --                        --
│    │    │    │    └─Linear: 5-40                 [385, 1, 1024]            [385, 1, 4096]            4,198,400                   0.69%                   --                        1,616,384,000
│    │    │    │    └─GELU: 5-41                   [385, 1, 4096]            [385, 1, 4096]            --                             --                   --                        --
│    │    │    │    └─Linear: 5-42                 [385, 1, 4096]            [385, 1, 1024]            4,195,328                   0.69%                   --                        1,615,201,280
│    │    └─ResidualAttentionBlock: 3-15           [385, 1, 1024]            [385, 1, 1024]            --                             --                   --                        --
│    │    │    └─LayerNorm: 4-57                   [385, 1, 1024]            [385, 1, 1024]            2,048                       0.00%                   --                        788,480
│    │    │    └─MultiheadAttention: 4-58          [385, 1, 1024]            [385, 1, 1024]            4,198,400                   0.69%                   --                        --
│    │    │    └─LayerNorm: 4-59                   [385, 1, 1024]            [385, 1, 1024]            2,048                       0.00%                   --                        788,480
│    │    │    └─Sequential: 4-60                  [385, 1, 1024]            [385, 1, 1024]            --                             --                   --                        --
│    │    │    │    └─Linear: 5-43                 [385, 1, 1024]            [385, 1, 4096]            4,198,400                   0.69%                   --                        1,616,384,000
│    │    │    │    └─GELU: 5-44                   [385, 1, 4096]            [385, 1, 4096]            --                             --                   --                        --
│    │    │    │    └─Linear: 5-45                 [385, 1, 4096]            [385, 1, 1024]            4,195,328                   0.69%                   --                        1,615,201,280
│    │    └─ResidualAttentionBlock: 3-16           [385, 1, 1024]            [385, 1, 1024]            --                             --                   --                        --
│    │    │    └─LayerNorm: 4-61                   [385, 1, 1024]            [385, 1, 1024]            2,048                       0.00%                   --                        788,480
│    │    │    └─MultiheadAttention: 4-62          [385, 1, 1024]            [385, 1, 1024]            4,198,400                   0.69%                   --                        --
│    │    │    └─LayerNorm: 4-63                   [385, 1, 1024]            [385, 1, 1024]            2,048                       0.00%                   --                        788,480
│    │    │    └─Sequential: 4-64                  [385, 1, 1024]            [385, 1, 1024]            --                             --                   --                        --
│    │    │    │    └─Linear: 5-46                 [385, 1, 1024]            [385, 1, 4096]            4,198,400                   0.69%                   --                        1,616,384,000
│    │    │    │    └─GELU: 5-47                   [385, 1, 4096]            [385, 1, 4096]            --                             --                   --                        --
│    │    │    │    └─Linear: 5-48                 [385, 1, 4096]            [385, 1, 1024]            4,195,328                   0.69%                   --                        1,615,201,280
│    │    └─ResidualAttentionBlock: 3-17           [385, 1, 1024]            [385, 1, 1024]            --                             --                   --                        --
│    │    │    └─LayerNorm: 4-65                   [385, 1, 1024]            [385, 1, 1024]            2,048                       0.00%                   --                        788,480
│    │    │    └─MultiheadAttention: 4-66          [385, 1, 1024]            [385, 1, 1024]            4,198,400                   0.69%                   --                        --
│    │    │    └─LayerNorm: 4-67                   [385, 1, 1024]            [385, 1, 1024]            2,048                       0.00%                   --                        788,480
│    │    │    └─Sequential: 4-68                  [385, 1, 1024]            [385, 1, 1024]            --                             --                   --                        --
│    │    │    │    └─Linear: 5-49                 [385, 1, 1024]            [385, 1, 4096]            4,198,400                   0.69%                   --                        1,616,384,000
│    │    │    │    └─GELU: 5-50                   [385, 1, 4096]            [385, 1, 4096]            --                             --                   --                        --
│    │    │    │    └─Linear: 5-51                 [385, 1, 4096]            [385, 1, 1024]            4,195,328                   0.69%                   --                        1,615,201,280
│    │    └─ResidualAttentionBlock: 3-18           [385, 1, 1024]            [385, 1, 1024]            --                             --                   --                        --
│    │    │    └─LayerNorm: 4-69                   [385, 1, 1024]            [385, 1, 1024]            2,048                       0.00%                   --                        788,480
│    │    │    └─MultiheadAttention: 4-70          [385, 1, 1024]            [385, 1, 1024]            4,198,400                   0.69%                   --                        --
│    │    │    └─LayerNorm: 4-71                   [385, 1, 1024]            [385, 1, 1024]            2,048                       0.00%                   --                        788,480
│    │    │    └─Sequential: 4-72                  [385, 1, 1024]            [385, 1, 1024]            --                             --                   --                        --
│    │    │    │    └─Linear: 5-52                 [385, 1, 1024]            [385, 1, 4096]            4,198,400                   0.69%                   --                        1,616,384,000
│    │    │    │    └─GELU: 5-53                   [385, 1, 4096]            [385, 1, 4096]            --                             --                   --                        --
│    │    │    │    └─Linear: 5-54                 [385, 1, 4096]            [385, 1, 1024]            4,195,328                   0.69%                   --                        1,615,201,280
│    │    └─ResidualAttentionBlock: 3-19           [385, 1, 1024]            [385, 1, 1024]            --                             --                   --                        --
│    │    │    └─LayerNorm: 4-73                   [385, 1, 1024]            [385, 1, 1024]            2,048                       0.00%                   --                        788,480
│    │    │    └─MultiheadAttention: 4-74          [385, 1, 1024]            [385, 1, 1024]            4,198,400                   0.69%                   --                        --
│    │    │    └─LayerNorm: 4-75                   [385, 1, 1024]            [385, 1, 1024]            2,048                       0.00%                   --                        788,480
│    │    │    └─Sequential: 4-76                  [385, 1, 1024]            [385, 1, 1024]            --                             --                   --                        --
│    │    │    │    └─Linear: 5-55                 [385, 1, 1024]            [385, 1, 4096]            4,198,400                   0.69%                   --                        1,616,384,000
│    │    │    │    └─GELU: 5-56                   [385, 1, 4096]            [385, 1, 4096]            --                             --                   --                        --
│    │    │    │    └─Linear: 5-57                 [385, 1, 4096]            [385, 1, 1024]            4,195,328                   0.69%                   --                        1,615,201,280
│    │    └─ResidualAttentionBlock: 3-20           [385, 1, 1024]            [385, 1, 1024]            --                             --                   --                        --
│    │    │    └─LayerNorm: 4-77                   [385, 1, 1024]            [385, 1, 1024]            2,048                       0.00%                   --                        788,480
│    │    │    └─MultiheadAttention: 4-78          [385, 1, 1024]            [385, 1, 1024]            4,198,400                   0.69%                   --                        --
│    │    │    └─LayerNorm: 4-79                   [385, 1, 1024]            [385, 1, 1024]            2,048                       0.00%                   --                        788,480
│    │    │    └─Sequential: 4-80                  [385, 1, 1024]            [385, 1, 1024]            --                             --                   --                        --
│    │    │    │    └─Linear: 5-58                 [385, 1, 1024]            [385, 1, 4096]            4,198,400                   0.69%                   --                        1,616,384,000
│    │    │    │    └─GELU: 5-59                   [385, 1, 4096]            [385, 1, 4096]            --                             --                   --                        --
│    │    │    │    └─Linear: 5-60                 [385, 1, 4096]            [385, 1, 1024]            4,195,328                   0.69%                   --                        1,615,201,280
│    │    └─ResidualAttentionBlock: 3-21           [385, 1, 1024]            [385, 1, 1024]            --                             --                   --                        --
│    │    │    └─LayerNorm: 4-81                   [385, 1, 1024]            [385, 1, 1024]            2,048                       0.00%                   --                        788,480
│    │    │    └─MultiheadAttention: 4-82          [385, 1, 1024]            [385, 1, 1024]            4,198,400                   0.69%                   --                        --
│    │    │    └─LayerNorm: 4-83                   [385, 1, 1024]            [385, 1, 1024]            2,048                       0.00%                   --                        788,480
│    │    │    └─Sequential: 4-84                  [385, 1, 1024]            [385, 1, 1024]            --                             --                   --                        --
│    │    │    │    └─Linear: 5-61                 [385, 1, 1024]            [385, 1, 4096]            4,198,400                   0.69%                   --                        1,616,384,000
│    │    │    │    └─GELU: 5-62                   [385, 1, 4096]            [385, 1, 4096]            --                             --                   --                        --
│    │    │    │    └─Linear: 5-63                 [385, 1, 4096]            [385, 1, 1024]            4,195,328                   0.69%                   --                        1,615,201,280
│    │    └─ResidualAttentionBlock: 3-22           [385, 1, 1024]            [385, 1, 1024]            --                             --                   --                        --
│    │    │    └─LayerNorm: 4-85                   [385, 1, 1024]            [385, 1, 1024]            2,048                       0.00%                   --                        788,480
│    │    │    └─MultiheadAttention: 4-86          [385, 1, 1024]            [385, 1, 1024]            4,198,400                   0.69%                   --                        --
│    │    │    └─LayerNorm: 4-87                   [385, 1, 1024]            [385, 1, 1024]            2,048                       0.00%                   --                        788,480
│    │    │    └─Sequential: 4-88                  [385, 1, 1024]            [385, 1, 1024]            --                             --                   --                        --
│    │    │    │    └─Linear: 5-64                 [385, 1, 1024]            [385, 1, 4096]            4,198,400                   0.69%                   --                        1,616,384,000
│    │    │    │    └─GELU: 5-65                   [385, 1, 4096]            [385, 1, 4096]            --                             --                   --                        --
│    │    │    │    └─Linear: 5-66                 [385, 1, 4096]            [385, 1, 1024]            4,195,328                   0.69%                   --                        1,615,201,280
│    │    └─ResidualAttentionBlock: 3-23           [385, 1, 1024]            [385, 1, 1024]            --                             --                   --                        --
│    │    │    └─LayerNorm: 4-89                   [385, 1, 1024]            [385, 1, 1024]            2,048                       0.00%                   --                        788,480
│    │    │    └─MultiheadAttention: 4-90          [385, 1, 1024]            [385, 1, 1024]            4,198,400                   0.69%                   --                        --
│    │    │    └─LayerNorm: 4-91                   [385, 1, 1024]            [385, 1, 1024]            2,048                       0.00%                   --                        788,480
│    │    │    └─Sequential: 4-92                  [385, 1, 1024]            [385, 1, 1024]            --                             --                   --                        --
│    │    │    │    └─Linear: 5-67                 [385, 1, 1024]            [385, 1, 4096]            4,198,400                   0.69%                   --                        1,616,384,000
│    │    │    │    └─GELU: 5-68                   [385, 1, 4096]            [385, 1, 4096]            --                             --                   --                        --
│    │    │    │    └─Linear: 5-69                 [385, 1, 4096]            [385, 1, 1024]            4,195,328                   0.69%                   --                        1,615,201,280
│    │    └─ResidualAttentionBlock: 3-24           [385, 1, 1024]            [385, 1, 1024]            --                             --                   --                        --
│    │    │    └─LayerNorm: 4-93                   [385, 1, 1024]            [385, 1, 1024]            2,048                       0.00%                   --                        788,480
│    │    │    └─MultiheadAttention: 4-94          [385, 1, 1024]            [385, 1, 1024]            4,198,400                   0.69%                   --                        --
│    │    │    └─LayerNorm: 4-95                   [385, 1, 1024]            [385, 1, 1024]            2,048                       0.00%                   --                        788,480
│    │    │    └─Sequential: 4-96                  [385, 1, 1024]            [385, 1, 1024]            --                             --                   --                        --
│    │    │    │    └─Linear: 5-70                 [385, 1, 1024]            [385, 1, 4096]            4,198,400                   0.69%                   --                        1,616,384,000
│    │    │    │    └─GELU: 5-71                   [385, 1, 4096]            [385, 1, 4096]            --                             --                   --                        --
│    │    │    │    └─Linear: 5-72                 [385, 1, 4096]            [385, 1, 1024]            4,195,328                   0.69%                   --                        1,615,201,280
│    └─LayerNorm: 2-4                              [1, 128, 1024]            [1, 128, 1024]            2,048                       0.00%                   --                        2,048
│    └─Conv2d: 2-5                                 [1, 1024, 128, 1]         [1, 12, 128, 1]           12,300                      0.00%                   [1, 1]                    1,574,400
├─VectorQuantizer: 1-2                             [1, 12, 1, 128]           [1, 12, 1, 128]           --                             --                   --                        --
│    └─Embedding: 2-6                              [128]                     [128, 12]                 49,152                      0.01%                   --                        6,291,456
├─TiTokDecoder: 1-3                                [1, 12, 1, 128]           [1, 1024, 16, 16]         396,288                     0.06%                   --                        --
│    └─Linear: 2-7                                 [1, 128, 12]              [1, 128, 1024]            13,312                      0.00%                   --                        13,312
│    └─LayerNorm: 2-8                              [1, 385, 1024]            [1, 385, 1024]            2,048                       0.00%                   --                        2,048
│    └─ModuleList: 2-9                             --                        --                        --                             --                   --                        --
│    │    └─ResidualAttentionBlock: 3-25           [385, 1, 1024]            [385, 1, 1024]            --                             --                   --                        --
│    │    │    └─LayerNorm: 4-97                   [385, 1, 1024]            [385, 1, 1024]            2,048                       0.00%                   --                        788,480
│    │    │    └─MultiheadAttention: 4-98          [385, 1, 1024]            [385, 1, 1024]            4,198,400                   0.69%                   --                        --
│    │    │    └─LayerNorm: 4-99                   [385, 1, 1024]            [385, 1, 1024]            2,048                       0.00%                   --                        788,480
│    │    │    └─Sequential: 4-100                 [385, 1, 1024]            [385, 1, 1024]            --                             --                   --                        --
│    │    │    │    └─Linear: 5-73                 [385, 1, 1024]            [385, 1, 4096]            4,198,400                   0.69%                   --                        1,616,384,000
│    │    │    │    └─GELU: 5-74                   [385, 1, 4096]            [385, 1, 4096]            --                             --                   --                        --
│    │    │    │    └─Linear: 5-75                 [385, 1, 4096]            [385, 1, 1024]            4,195,328                   0.69%                   --                        1,615,201,280
│    │    └─ResidualAttentionBlock: 3-26           [385, 1, 1024]            [385, 1, 1024]            --                             --                   --                        --
│    │    │    └─LayerNorm: 4-101                  [385, 1, 1024]            [385, 1, 1024]            2,048                       0.00%                   --                        788,480
│    │    │    └─MultiheadAttention: 4-102         [385, 1, 1024]            [385, 1, 1024]            4,198,400                   0.69%                   --                        --
│    │    │    └─LayerNorm: 4-103                  [385, 1, 1024]            [385, 1, 1024]            2,048                       0.00%                   --                        788,480
│    │    │    └─Sequential: 4-104                 [385, 1, 1024]            [385, 1, 1024]            --                             --                   --                        --
│    │    │    │    └─Linear: 5-76                 [385, 1, 1024]            [385, 1, 4096]            4,198,400                   0.69%                   --                        1,616,384,000
│    │    │    │    └─GELU: 5-77                   [385, 1, 4096]            [385, 1, 4096]            --                             --                   --                        --
│    │    │    │    └─Linear: 5-78                 [385, 1, 4096]            [385, 1, 1024]            4,195,328                   0.69%                   --                        1,615,201,280
│    │    └─ResidualAttentionBlock: 3-27           [385, 1, 1024]            [385, 1, 1024]            --                             --                   --                        --
│    │    │    └─LayerNorm: 4-105                  [385, 1, 1024]            [385, 1, 1024]            2,048                       0.00%                   --                        788,480
│    │    │    └─MultiheadAttention: 4-106         [385, 1, 1024]            [385, 1, 1024]            4,198,400                   0.69%                   --                        --
│    │    │    └─LayerNorm: 4-107                  [385, 1, 1024]            [385, 1, 1024]            2,048                       0.00%                   --                        788,480
│    │    │    └─Sequential: 4-108                 [385, 1, 1024]            [385, 1, 1024]            --                             --                   --                        --
│    │    │    │    └─Linear: 5-79                 [385, 1, 1024]            [385, 1, 4096]            4,198,400                   0.69%                   --                        1,616,384,000
│    │    │    │    └─GELU: 5-80                   [385, 1, 4096]            [385, 1, 4096]            --                             --                   --                        --
│    │    │    │    └─Linear: 5-81                 [385, 1, 4096]            [385, 1, 1024]            4,195,328                   0.69%                   --                        1,615,201,280
│    │    └─ResidualAttentionBlock: 3-28           [385, 1, 1024]            [385, 1, 1024]            --                             --                   --                        --
│    │    │    └─LayerNorm: 4-109                  [385, 1, 1024]            [385, 1, 1024]            2,048                       0.00%                   --                        788,480
│    │    │    └─MultiheadAttention: 4-110         [385, 1, 1024]            [385, 1, 1024]            4,198,400                   0.69%                   --                        --
│    │    │    └─LayerNorm: 4-111                  [385, 1, 1024]            [385, 1, 1024]            2,048                       0.00%                   --                        788,480
│    │    │    └─Sequential: 4-112                 [385, 1, 1024]            [385, 1, 1024]            --                             --                   --                        --
│    │    │    │    └─Linear: 5-82                 [385, 1, 1024]            [385, 1, 4096]            4,198,400                   0.69%                   --                        1,616,384,000
│    │    │    │    └─GELU: 5-83                   [385, 1, 4096]            [385, 1, 4096]            --                             --                   --                        --
│    │    │    │    └─Linear: 5-84                 [385, 1, 4096]            [385, 1, 1024]            4,195,328                   0.69%                   --                        1,615,201,280
│    │    └─ResidualAttentionBlock: 3-29           [385, 1, 1024]            [385, 1, 1024]            --                             --                   --                        --
│    │    │    └─LayerNorm: 4-113                  [385, 1, 1024]            [385, 1, 1024]            2,048                       0.00%                   --                        788,480
│    │    │    └─MultiheadAttention: 4-114         [385, 1, 1024]            [385, 1, 1024]            4,198,400                   0.69%                   --                        --
│    │    │    └─LayerNorm: 4-115                  [385, 1, 1024]            [385, 1, 1024]            2,048                       0.00%                   --                        788,480
│    │    │    └─Sequential: 4-116                 [385, 1, 1024]            [385, 1, 1024]            --                             --                   --                        --
│    │    │    │    └─Linear: 5-85                 [385, 1, 1024]            [385, 1, 4096]            4,198,400                   0.69%                   --                        1,616,384,000
│    │    │    │    └─GELU: 5-86                   [385, 1, 4096]            [385, 1, 4096]            --                             --                   --                        --
│    │    │    │    └─Linear: 5-87                 [385, 1, 4096]            [385, 1, 1024]            4,195,328                   0.69%                   --                        1,615,201,280
│    │    └─ResidualAttentionBlock: 3-30           [385, 1, 1024]            [385, 1, 1024]            --                             --                   --                        --
│    │    │    └─LayerNorm: 4-117                  [385, 1, 1024]            [385, 1, 1024]            2,048                       0.00%                   --                        788,480
│    │    │    └─MultiheadAttention: 4-118         [385, 1, 1024]            [385, 1, 1024]            4,198,400                   0.69%                   --                        --
│    │    │    └─LayerNorm: 4-119                  [385, 1, 1024]            [385, 1, 1024]            2,048                       0.00%                   --                        788,480
│    │    │    └─Sequential: 4-120                 [385, 1, 1024]            [385, 1, 1024]            --                             --                   --                        --
│    │    │    │    └─Linear: 5-88                 [385, 1, 1024]            [385, 1, 4096]            4,198,400                   0.69%                   --                        1,616,384,000
│    │    │    │    └─GELU: 5-89                   [385, 1, 4096]            [385, 1, 4096]            --                             --                   --                        --
│    │    │    │    └─Linear: 5-90                 [385, 1, 4096]            [385, 1, 1024]            4,195,328                   0.69%                   --                        1,615,201,280
│    │    └─ResidualAttentionBlock: 3-31           [385, 1, 1024]            [385, 1, 1024]            --                             --                   --                        --
│    │    │    └─LayerNorm: 4-121                  [385, 1, 1024]            [385, 1, 1024]            2,048                       0.00%                   --                        788,480
│    │    │    └─MultiheadAttention: 4-122         [385, 1, 1024]            [385, 1, 1024]            4,198,400                   0.69%                   --                        --
│    │    │    └─LayerNorm: 4-123                  [385, 1, 1024]            [385, 1, 1024]            2,048                       0.00%                   --                        788,480
│    │    │    └─Sequential: 4-124                 [385, 1, 1024]            [385, 1, 1024]            --                             --                   --                        --
│    │    │    │    └─Linear: 5-91                 [385, 1, 1024]            [385, 1, 4096]            4,198,400                   0.69%                   --                        1,616,384,000
│    │    │    │    └─GELU: 5-92                   [385, 1, 4096]            [385, 1, 4096]            --                             --                   --                        --
│    │    │    │    └─Linear: 5-93                 [385, 1, 4096]            [385, 1, 1024]            4,195,328                   0.69%                   --                        1,615,201,280
│    │    └─ResidualAttentionBlock: 3-32           [385, 1, 1024]            [385, 1, 1024]            --                             --                   --                        --
│    │    │    └─LayerNorm: 4-125                  [385, 1, 1024]            [385, 1, 1024]            2,048                       0.00%                   --                        788,480
│    │    │    └─MultiheadAttention: 4-126         [385, 1, 1024]            [385, 1, 1024]            4,198,400                   0.69%                   --                        --
│    │    │    └─LayerNorm: 4-127                  [385, 1, 1024]            [385, 1, 1024]            2,048                       0.00%                   --                        788,480
│    │    │    └─Sequential: 4-128                 [385, 1, 1024]            [385, 1, 1024]            --                             --                   --                        --
│    │    │    │    └─Linear: 5-94                 [385, 1, 1024]            [385, 1, 4096]            4,198,400                   0.69%                   --                        1,616,384,000
│    │    │    │    └─GELU: 5-95                   [385, 1, 4096]            [385, 1, 4096]            --                             --                   --                        --
│    │    │    │    └─Linear: 5-96                 [385, 1, 4096]            [385, 1, 1024]            4,195,328                   0.69%                   --                        1,615,201,280
│    │    └─ResidualAttentionBlock: 3-33           [385, 1, 1024]            [385, 1, 1024]            --                             --                   --                        --
│    │    │    └─LayerNorm: 4-129                  [385, 1, 1024]            [385, 1, 1024]            2,048                       0.00%                   --                        788,480
│    │    │    └─MultiheadAttention: 4-130         [385, 1, 1024]            [385, 1, 1024]            4,198,400                   0.69%                   --                        --
│    │    │    └─LayerNorm: 4-131                  [385, 1, 1024]            [385, 1, 1024]            2,048                       0.00%                   --                        788,480
│    │    │    └─Sequential: 4-132                 [385, 1, 1024]            [385, 1, 1024]            --                             --                   --                        --
│    │    │    │    └─Linear: 5-97                 [385, 1, 1024]            [385, 1, 4096]            4,198,400                   0.69%                   --                        1,616,384,000
│    │    │    │    └─GELU: 5-98                   [385, 1, 4096]            [385, 1, 4096]            --                             --                   --                        --
│    │    │    │    └─Linear: 5-99                 [385, 1, 4096]            [385, 1, 1024]            4,195,328                   0.69%                   --                        1,615,201,280
│    │    └─ResidualAttentionBlock: 3-34           [385, 1, 1024]            [385, 1, 1024]            --                             --                   --                        --
│    │    │    └─LayerNorm: 4-133                  [385, 1, 1024]            [385, 1, 1024]            2,048                       0.00%                   --                        788,480
│    │    │    └─MultiheadAttention: 4-134         [385, 1, 1024]            [385, 1, 1024]            4,198,400                   0.69%                   --                        --
│    │    │    └─LayerNorm: 4-135                  [385, 1, 1024]            [385, 1, 1024]            2,048                       0.00%                   --                        788,480
│    │    │    └─Sequential: 4-136                 [385, 1, 1024]            [385, 1, 1024]            --                             --                   --                        --
│    │    │    │    └─Linear: 5-100                [385, 1, 1024]            [385, 1, 4096]            4,198,400                   0.69%                   --                        1,616,384,000
│    │    │    │    └─GELU: 5-101                  [385, 1, 4096]            [385, 1, 4096]            --                             --                   --                        --
│    │    │    │    └─Linear: 5-102                [385, 1, 4096]            [385, 1, 1024]            4,195,328                   0.69%                   --                        1,615,201,280
│    │    └─ResidualAttentionBlock: 3-35           [385, 1, 1024]            [385, 1, 1024]            --                             --                   --                        --
│    │    │    └─LayerNorm: 4-137                  [385, 1, 1024]            [385, 1, 1024]            2,048                       0.00%                   --                        788,480
│    │    │    └─MultiheadAttention: 4-138         [385, 1, 1024]            [385, 1, 1024]            4,198,400                   0.69%                   --                        --
│    │    │    └─LayerNorm: 4-139                  [385, 1, 1024]            [385, 1, 1024]            2,048                       0.00%                   --                        788,480
│    │    │    └─Sequential: 4-140                 [385, 1, 1024]            [385, 1, 1024]            --                             --                   --                        --
│    │    │    │    └─Linear: 5-103                [385, 1, 1024]            [385, 1, 4096]            4,198,400                   0.69%                   --                        1,616,384,000
│    │    │    │    └─GELU: 5-104                  [385, 1, 4096]            [385, 1, 4096]            --                             --                   --                        --
│    │    │    │    └─Linear: 5-105                [385, 1, 4096]            [385, 1, 1024]            4,195,328                   0.69%                   --                        1,615,201,280
│    │    └─ResidualAttentionBlock: 3-36           [385, 1, 1024]            [385, 1, 1024]            --                             --                   --                        --
│    │    │    └─LayerNorm: 4-141                  [385, 1, 1024]            [385, 1, 1024]            2,048                       0.00%                   --                        788,480
│    │    │    └─MultiheadAttention: 4-142         [385, 1, 1024]            [385, 1, 1024]            4,198,400                   0.69%                   --                        --
│    │    │    └─LayerNorm: 4-143                  [385, 1, 1024]            [385, 1, 1024]            2,048                       0.00%                   --                        788,480
│    │    │    └─Sequential: 4-144                 [385, 1, 1024]            [385, 1, 1024]            --                             --                   --                        --
│    │    │    │    └─Linear: 5-106                [385, 1, 1024]            [385, 1, 4096]            4,198,400                   0.69%                   --                        1,616,384,000
│    │    │    │    └─GELU: 5-107                  [385, 1, 4096]            [385, 1, 4096]            --                             --                   --                        --
│    │    │    │    └─Linear: 5-108                [385, 1, 4096]            [385, 1, 1024]            4,195,328                   0.69%                   --                        1,615,201,280
│    │    └─ResidualAttentionBlock: 3-37           [385, 1, 1024]            [385, 1, 1024]            --                             --                   --                        --
│    │    │    └─LayerNorm: 4-145                  [385, 1, 1024]            [385, 1, 1024]            2,048                       0.00%                   --                        788,480
│    │    │    └─MultiheadAttention: 4-146         [385, 1, 1024]            [385, 1, 1024]            4,198,400                   0.69%                   --                        --
│    │    │    └─LayerNorm: 4-147                  [385, 1, 1024]            [385, 1, 1024]            2,048                       0.00%                   --                        788,480
│    │    │    └─Sequential: 4-148                 [385, 1, 1024]            [385, 1, 1024]            --                             --                   --                        --
│    │    │    │    └─Linear: 5-109                [385, 1, 1024]            [385, 1, 4096]            4,198,400                   0.69%                   --                        1,616,384,000
│    │    │    │    └─GELU: 5-110                  [385, 1, 4096]            [385, 1, 4096]            --                             --                   --                        --
│    │    │    │    └─Linear: 5-111                [385, 1, 4096]            [385, 1, 1024]            4,195,328                   0.69%                   --                        1,615,201,280
│    │    └─ResidualAttentionBlock: 3-38           [385, 1, 1024]            [385, 1, 1024]            --                             --                   --                        --
│    │    │    └─LayerNorm: 4-149                  [385, 1, 1024]            [385, 1, 1024]            2,048                       0.00%                   --                        788,480
│    │    │    └─MultiheadAttention: 4-150         [385, 1, 1024]            [385, 1, 1024]            4,198,400                   0.69%                   --                        --
│    │    │    └─LayerNorm: 4-151                  [385, 1, 1024]            [385, 1, 1024]            2,048                       0.00%                   --                        788,480
│    │    │    └─Sequential: 4-152                 [385, 1, 1024]            [385, 1, 1024]            --                             --                   --                        --
│    │    │    │    └─Linear: 5-112                [385, 1, 1024]            [385, 1, 4096]            4,198,400                   0.69%                   --                        1,616,384,000
│    │    │    │    └─GELU: 5-113                  [385, 1, 4096]            [385, 1, 4096]            --                             --                   --                        --
│    │    │    │    └─Linear: 5-114                [385, 1, 4096]            [385, 1, 1024]            4,195,328                   0.69%                   --                        1,615,201,280
│    │    └─ResidualAttentionBlock: 3-39           [385, 1, 1024]            [385, 1, 1024]            --                             --                   --                        --
│    │    │    └─LayerNorm: 4-153                  [385, 1, 1024]            [385, 1, 1024]            2,048                       0.00%                   --                        788,480
│    │    │    └─MultiheadAttention: 4-154         [385, 1, 1024]            [385, 1, 1024]            4,198,400                   0.69%                   --                        --
│    │    │    └─LayerNorm: 4-155                  [385, 1, 1024]            [385, 1, 1024]            2,048                       0.00%                   --                        788,480
│    │    │    └─Sequential: 4-156                 [385, 1, 1024]            [385, 1, 1024]            --                             --                   --                        --
│    │    │    │    └─Linear: 5-115                [385, 1, 1024]            [385, 1, 4096]            4,198,400                   0.69%                   --                        1,616,384,000
│    │    │    │    └─GELU: 5-116                  [385, 1, 4096]            [385, 1, 4096]            --                             --                   --                        --
│    │    │    │    └─Linear: 5-117                [385, 1, 4096]            [385, 1, 1024]            4,195,328                   0.69%                   --                        1,615,201,280
│    │    └─ResidualAttentionBlock: 3-40           [385, 1, 1024]            [385, 1, 1024]            --                             --                   --                        --
│    │    │    └─LayerNorm: 4-157                  [385, 1, 1024]            [385, 1, 1024]            2,048                       0.00%                   --                        788,480
│    │    │    └─MultiheadAttention: 4-158         [385, 1, 1024]            [385, 1, 1024]            4,198,400                   0.69%                   --                        --
│    │    │    └─LayerNorm: 4-159                  [385, 1, 1024]            [385, 1, 1024]            2,048                       0.00%                   --                        788,480
│    │    │    └─Sequential: 4-160                 [385, 1, 1024]            [385, 1, 1024]            --                             --                   --                        --
│    │    │    │    └─Linear: 5-118                [385, 1, 1024]            [385, 1, 4096]            4,198,400                   0.69%                   --                        1,616,384,000
│    │    │    │    └─GELU: 5-119                  [385, 1, 4096]            [385, 1, 4096]            --                             --                   --                        --
│    │    │    │    └─Linear: 5-120                [385, 1, 4096]            [385, 1, 1024]            4,195,328                   0.69%                   --                        1,615,201,280
│    │    └─ResidualAttentionBlock: 3-41           [385, 1, 1024]            [385, 1, 1024]            --                             --                   --                        --
│    │    │    └─LayerNorm: 4-161                  [385, 1, 1024]            [385, 1, 1024]            2,048                       0.00%                   --                        788,480
│    │    │    └─MultiheadAttention: 4-162         [385, 1, 1024]            [385, 1, 1024]            4,198,400                   0.69%                   --                        --
│    │    │    └─LayerNorm: 4-163                  [385, 1, 1024]            [385, 1, 1024]            2,048                       0.00%                   --                        788,480
│    │    │    └─Sequential: 4-164                 [385, 1, 1024]            [385, 1, 1024]            --                             --                   --                        --
│    │    │    │    └─Linear: 5-121                [385, 1, 1024]            [385, 1, 4096]            4,198,400                   0.69%                   --                        1,616,384,000
│    │    │    │    └─GELU: 5-122                  [385, 1, 4096]            [385, 1, 4096]            --                             --                   --                        --
│    │    │    │    └─Linear: 5-123                [385, 1, 4096]            [385, 1, 1024]            4,195,328                   0.69%                   --                        1,615,201,280
│    │    └─ResidualAttentionBlock: 3-42           [385, 1, 1024]            [385, 1, 1024]            --                             --                   --                        --
│    │    │    └─LayerNorm: 4-165                  [385, 1, 1024]            [385, 1, 1024]            2,048                       0.00%                   --                        788,480
│    │    │    └─MultiheadAttention: 4-166         [385, 1, 1024]            [385, 1, 1024]            4,198,400                   0.69%                   --                        --
│    │    │    └─LayerNorm: 4-167                  [385, 1, 1024]            [385, 1, 1024]            2,048                       0.00%                   --                        788,480
│    │    │    └─Sequential: 4-168                 [385, 1, 1024]            [385, 1, 1024]            --                             --                   --                        --
│    │    │    │    └─Linear: 5-124                [385, 1, 1024]            [385, 1, 4096]            4,198,400                   0.69%                   --                        1,616,384,000
│    │    │    │    └─GELU: 5-125                  [385, 1, 4096]            [385, 1, 4096]            --                             --                   --                        --
│    │    │    │    └─Linear: 5-126                [385, 1, 4096]            [385, 1, 1024]            4,195,328                   0.69%                   --                        1,615,201,280
│    │    └─ResidualAttentionBlock: 3-43           [385, 1, 1024]            [385, 1, 1024]            --                             --                   --                        --
│    │    │    └─LayerNorm: 4-169                  [385, 1, 1024]            [385, 1, 1024]            2,048                       0.00%                   --                        788,480
│    │    │    └─MultiheadAttention: 4-170         [385, 1, 1024]            [385, 1, 1024]            4,198,400                   0.69%                   --                        --
│    │    │    └─LayerNorm: 4-171                  [385, 1, 1024]            [385, 1, 1024]            2,048                       0.00%                   --                        788,480
│    │    │    └─Sequential: 4-172                 [385, 1, 1024]            [385, 1, 1024]            --                             --                   --                        --
│    │    │    │    └─Linear: 5-127                [385, 1, 1024]            [385, 1, 4096]            4,198,400                   0.69%                   --                        1,616,384,000
│    │    │    │    └─GELU: 5-128                  [385, 1, 4096]            [385, 1, 4096]            --                             --                   --                        --
│    │    │    │    └─Linear: 5-129                [385, 1, 4096]            [385, 1, 1024]            4,195,328                   0.69%                   --                        1,615,201,280
│    │    └─ResidualAttentionBlock: 3-44           [385, 1, 1024]            [385, 1, 1024]            --                             --                   --                        --
│    │    │    └─LayerNorm: 4-173                  [385, 1, 1024]            [385, 1, 1024]            2,048                       0.00%                   --                        788,480
│    │    │    └─MultiheadAttention: 4-174         [385, 1, 1024]            [385, 1, 1024]            4,198,400                   0.69%                   --                        --
│    │    │    └─LayerNorm: 4-175                  [385, 1, 1024]            [385, 1, 1024]            2,048                       0.00%                   --                        788,480
│    │    │    └─Sequential: 4-176                 [385, 1, 1024]            [385, 1, 1024]            --                             --                   --                        --
│    │    │    │    └─Linear: 5-130                [385, 1, 1024]            [385, 1, 4096]            4,198,400                   0.69%                   --                        1,616,384,000
│    │    │    │    └─GELU: 5-131                  [385, 1, 4096]            [385, 1, 4096]            --                             --                   --                        --
│    │    │    │    └─Linear: 5-132                [385, 1, 4096]            [385, 1, 1024]            4,195,328                   0.69%                   --                        1,615,201,280
│    │    └─ResidualAttentionBlock: 3-45           [385, 1, 1024]            [385, 1, 1024]            --                             --                   --                        --
│    │    │    └─LayerNorm: 4-177                  [385, 1, 1024]            [385, 1, 1024]            2,048                       0.00%                   --                        788,480
│    │    │    └─MultiheadAttention: 4-178         [385, 1, 1024]            [385, 1, 1024]            4,198,400                   0.69%                   --                        --
│    │    │    └─LayerNorm: 4-179                  [385, 1, 1024]            [385, 1, 1024]            2,048                       0.00%                   --                        788,480
│    │    │    └─Sequential: 4-180                 [385, 1, 1024]            [385, 1, 1024]            --                             --                   --                        --
│    │    │    │    └─Linear: 5-133                [385, 1, 1024]            [385, 1, 4096]            4,198,400                   0.69%                   --                        1,616,384,000
│    │    │    │    └─GELU: 5-134                  [385, 1, 4096]            [385, 1, 4096]            --                             --                   --                        --
│    │    │    │    └─Linear: 5-135                [385, 1, 4096]            [385, 1, 1024]            4,195,328                   0.69%                   --                        1,615,201,280
│    │    └─ResidualAttentionBlock: 3-46           [385, 1, 1024]            [385, 1, 1024]            --                             --                   --                        --
│    │    │    └─LayerNorm: 4-181                  [385, 1, 1024]            [385, 1, 1024]            2,048                       0.00%                   --                        788,480
│    │    │    └─MultiheadAttention: 4-182         [385, 1, 1024]            [385, 1, 1024]            4,198,400                   0.69%                   --                        --
│    │    │    └─LayerNorm: 4-183                  [385, 1, 1024]            [385, 1, 1024]            2,048                       0.00%                   --                        788,480
│    │    │    └─Sequential: 4-184                 [385, 1, 1024]            [385, 1, 1024]            --                             --                   --                        --
│    │    │    │    └─Linear: 5-136                [385, 1, 1024]            [385, 1, 4096]            4,198,400                   0.69%                   --                        1,616,384,000
│    │    │    │    └─GELU: 5-137                  [385, 1, 4096]            [385, 1, 4096]            --                             --                   --                        --
│    │    │    │    └─Linear: 5-138                [385, 1, 4096]            [385, 1, 1024]            4,195,328                   0.69%                   --                        1,615,201,280
│    │    └─ResidualAttentionBlock: 3-47           [385, 1, 1024]            [385, 1, 1024]            --                             --                   --                        --
│    │    │    └─LayerNorm: 4-185                  [385, 1, 1024]            [385, 1, 1024]            2,048                       0.00%                   --                        788,480
│    │    │    └─MultiheadAttention: 4-186         [385, 1, 1024]            [385, 1, 1024]            4,198,400                   0.69%                   --                        --
│    │    │    └─LayerNorm: 4-187                  [385, 1, 1024]            [385, 1, 1024]            2,048                       0.00%                   --                        788,480
│    │    │    └─Sequential: 4-188                 [385, 1, 1024]            [385, 1, 1024]            --                             --                   --                        --
│    │    │    │    └─Linear: 5-139                [385, 1, 1024]            [385, 1, 4096]            4,198,400                   0.69%                   --                        1,616,384,000
│    │    │    │    └─GELU: 5-140                  [385, 1, 4096]            [385, 1, 4096]            --                             --                   --                        --
│    │    │    │    └─Linear: 5-141                [385, 1, 4096]            [385, 1, 1024]            4,195,328                   0.69%                   --                        1,615,201,280
│    │    └─ResidualAttentionBlock: 3-48           [385, 1, 1024]            [385, 1, 1024]            --                             --                   --                        --
│    │    │    └─LayerNorm: 4-189                  [385, 1, 1024]            [385, 1, 1024]            2,048                       0.00%                   --                        788,480
│    │    │    └─MultiheadAttention: 4-190         [385, 1, 1024]            [385, 1, 1024]            4,198,400                   0.69%                   --                        --
│    │    │    └─LayerNorm: 4-191                  [385, 1, 1024]            [385, 1, 1024]            2,048                       0.00%                   --                        788,480
│    │    │    └─Sequential: 4-192                 [385, 1, 1024]            [385, 1, 1024]            --                             --                   --                        --
│    │    │    │    └─Linear: 5-142                [385, 1, 1024]            [385, 1, 4096]            4,198,400                   0.69%                   --                        1,616,384,000
│    │    │    │    └─GELU: 5-143                  [385, 1, 4096]            [385, 1, 4096]            --                             --                   --                        --
│    │    │    │    └─Linear: 5-144                [385, 1, 4096]            [385, 1, 1024]            4,195,328                   0.69%                   --                        1,615,201,280
│    └─LayerNorm: 2-10                             [1, 256, 1024]            [1, 256, 1024]            2,048                       0.00%                   --                        2,048
│    └─Sequential: 2-11                            [1, 1024, 16, 16]         [1, 1024, 16, 16]         --                             --                   --                        --
│    │    └─Conv2d: 3-49                           [1, 1024, 16, 16]         [1, 2048, 16, 16]         2,099,200                   0.34%                   [1, 1]                    537,395,200
│    │    └─Tanh: 3-50                             [1, 2048, 16, 16]         [1, 2048, 16, 16]         --                             --                   --                        --
│    │    └─Conv2d: 3-51                           [1, 2048, 16, 16]         [1, 1024, 16, 16]         2,098,176                   0.34%                   [1, 1]                    537,133,056
│    └─Identity: 2-12                              [1, 1024, 16, 16]         [1, 1024, 16, 16]         --                             --                   --                        --
========================================================================================================================================================================================================
Total params: 610,609,164
Trainable params: 610,609,164
Non-trainable params: 0
Total mult-adds (G): 156.48
========================================================================================================================================================================================================
…
