…
[01/21 22:31:26 TiTok]: ========================================================================================================================================================================================================
Layer (type:depth-idx)                             Input Shape               Output Shape              Param #                   Param %                   Kernel Shape              Mult-Adds
========================================================================================================================================================================================================
TiTok                                              [1, 3, 256, 256]          [1, 1024, 16, 16]         49,152                      0.03%                   --                        --
├─TiTokEncoder: 1-1                                --                        [1, 12, 1, 64]            247,296                     0.14%                   --                        --
│    └─Conv2d: 2-1                                 [1, 3, 256, 256]          [1, 768, 16, 16]          590,592                     0.34%                   [16, 16]                  151,191,552
│    └─LayerNorm: 2-2                              [1, 321, 768]             [1, 321, 768]             1,536                       0.00%                   --                        1,536
│    └─ModuleList: 2-3                             --                        --                        --                             --                   --                        --
│    │    └─ResidualAttentionBlock: 3-1            [321, 1, 768]             [321, 1, 768]             --                             --                   --                        --
│    │    │    └─LayerNorm: 4-1                    [321, 1, 768]             [321, 1, 768]             1,536                       0.00%                   --                        493,056
│    │    │    └─MultiheadAttention: 4-2           [321, 1, 768]             [321, 1, 768]             2,362,368                   1.36%                   --                        --
│    │    │    └─LayerNorm: 4-3                    [321, 1, 768]             [321, 1, 768]             1,536                       0.00%                   --                        493,056
│    │    │    └─Sequential: 4-4                   [321, 1, 768]             [321, 1, 768]             --                             --                   --                        --
│    │    │    │    └─Linear: 5-1                  [321, 1, 768]             [321, 1, 3072]            2,362,368                   1.36%                   --                        758,320,128
│    │    │    │    └─GELU: 5-2                    [321, 1, 3072]            [321, 1, 3072]            --                             --                   --                        --
│    │    │    │    └─Linear: 5-3                  [321, 1, 3072]            [321, 1, 768]             2,360,064                   1.36%                   --                        757,580,544
│    │    └─ResidualAttentionBlock: 3-2            [321, 1, 768]             [321, 1, 768]             --                             --                   --                        --
│    │    │    └─LayerNorm: 4-5                    [321, 1, 768]             [321, 1, 768]             1,536                       0.00%                   --                        493,056
│    │    │    └─MultiheadAttention: 4-6           [321, 1, 768]             [321, 1, 768]             2,362,368                   1.36%                   --                        --
│    │    │    └─LayerNorm: 4-7                    [321, 1, 768]             [321, 1, 768]             1,536                       0.00%                   --                        493,056
│    │    │    └─Sequential: 4-8                   [321, 1, 768]             [321, 1, 768]             --                             --                   --                        --
│    │    │    │    └─Linear: 5-4                  [321, 1, 768]             [321, 1, 3072]            2,362,368                   1.36%                   --                        758,320,128
│    │    │    │    └─GELU: 5-5                    [321, 1, 3072]            [321, 1, 3072]            --                             --                   --                        --
│    │    │    │    └─Linear: 5-6                  [321, 1, 3072]            [321, 1, 768]             2,360,064                   1.36%                   --                        757,580,544
│    │    └─ResidualAttentionBlock: 3-3            [321, 1, 768]             [321, 1, 768]             --                             --                   --                        --
│    │    │    └─LayerNorm: 4-9                    [321, 1, 768]             [321, 1, 768]             1,536                       0.00%                   --                        493,056
│    │    │    └─MultiheadAttention: 4-10          [321, 1, 768]             [321, 1, 768]             2,362,368                   1.36%                   --                        --
│    │    │    └─LayerNorm: 4-11                   [321, 1, 768]             [321, 1, 768]             1,536                       0.00%                   --                        493,056
│    │    │    └─Sequential: 4-12                  [321, 1, 768]             [321, 1, 768]             --                             --                   --                        --
│    │    │    │    └─Linear: 5-7                  [321, 1, 768]             [321, 1, 3072]            2,362,368                   1.36%                   --                        758,320,128
│    │    │    │    └─GELU: 5-8                    [321, 1, 3072]            [321, 1, 3072]            --                             --                   --                        --
│    │    │    │    └─Linear: 5-9                  [321, 1, 3072]            [321, 1, 768]             2,360,064                   1.36%                   --                        757,580,544
│    │    └─ResidualAttentionBlock: 3-4            [321, 1, 768]             [321, 1, 768]             --                             --                   --                        --
│    │    │    └─LayerNorm: 4-13                   [321, 1, 768]             [321, 1, 768]             1,536                       0.00%                   --                        493,056
│    │    │    └─MultiheadAttention: 4-14          [321, 1, 768]             [321, 1, 768]             2,362,368                   1.36%                   --                        --
│    │    │    └─LayerNorm: 4-15                   [321, 1, 768]             [321, 1, 768]             1,536                       0.00%                   --                        493,056
│    │    │    └─Sequential: 4-16                  [321, 1, 768]             [321, 1, 768]             --                             --                   --                        --
│    │    │    │    └─Linear: 5-10                 [321, 1, 768]             [321, 1, 3072]            2,362,368                   1.36%                   --                        758,320,128
│    │    │    │    └─GELU: 5-11                   [321, 1, 3072]            [321, 1, 3072]            --                             --                   --                        --
│    │    │    │    └─Linear: 5-12                 [321, 1, 3072]            [321, 1, 768]             2,360,064                   1.36%                   --                        757,580,544
│    │    └─ResidualAttentionBlock: 3-5            [321, 1, 768]             [321, 1, 768]             --                             --                   --                        --
│    │    │    └─LayerNorm: 4-17                   [321, 1, 768]             [321, 1, 768]             1,536                       0.00%                   --                        493,056
│    │    │    └─MultiheadAttention: 4-18          [321, 1, 768]             [321, 1, 768]             2,362,368                   1.36%                   --                        --
│    │    │    └─LayerNorm: 4-19                   [321, 1, 768]             [321, 1, 768]             1,536                       0.00%                   --                        493,056
│    │    │    └─Sequential: 4-20                  [321, 1, 768]             [321, 1, 768]             --                             --                   --                        --
│    │    │    │    └─Linear: 5-13                 [321, 1, 768]             [321, 1, 3072]            2,362,368                   1.36%                   --                        758,320,128
│    │    │    │    └─GELU: 5-14                   [321, 1, 3072]            [321, 1, 3072]            --                             --                   --                        --
│    │    │    │    └─Linear: 5-15                 [321, 1, 3072]            [321, 1, 768]             2,360,064                   1.36%                   --                        757,580,544
│    │    └─ResidualAttentionBlock: 3-6            [321, 1, 768]             [321, 1, 768]             --                             --                   --                        --
│    │    │    └─LayerNorm: 4-21                   [321, 1, 768]             [321, 1, 768]             1,536                       0.00%                   --                        493,056
│    │    │    └─MultiheadAttention: 4-22          [321, 1, 768]             [321, 1, 768]             2,362,368                   1.36%                   --                        --
│    │    │    └─LayerNorm: 4-23                   [321, 1, 768]             [321, 1, 768]             1,536                       0.00%                   --                        493,056
│    │    │    └─Sequential: 4-24                  [321, 1, 768]             [321, 1, 768]             --                             --                   --                        --
│    │    │    │    └─Linear: 5-16                 [321, 1, 768]             [321, 1, 3072]            2,362,368                   1.36%                   --                        758,320,128
│    │    │    │    └─GELU: 5-17                   [321, 1, 3072]            [321, 1, 3072]            --                             --                   --                        --
│    │    │    │    └─Linear: 5-18                 [321, 1, 3072]            [321, 1, 768]             2,360,064                   1.36%                   --                        757,580,544
│    │    └─ResidualAttentionBlock: 3-7            [321, 1, 768]             [321, 1, 768]             --                             --                   --                        --
│    │    │    └─LayerNorm: 4-25                   [321, 1, 768]             [321, 1, 768]             1,536                       0.00%                   --                        493,056
│    │    │    └─MultiheadAttention: 4-26          [321, 1, 768]             [321, 1, 768]             2,362,368                   1.36%                   --                        --
│    │    │    └─LayerNorm: 4-27                   [321, 1, 768]             [321, 1, 768]             1,536                       0.00%                   --                        493,056
│    │    │    └─Sequential: 4-28                  [321, 1, 768]             [321, 1, 768]             --                             --                   --                        --
│    │    │    │    └─Linear: 5-19                 [321, 1, 768]             [321, 1, 3072]            2,362,368                   1.36%                   --                        758,320,128
│    │    │    │    └─GELU: 5-20                   [321, 1, 3072]            [321, 1, 3072]            --                             --                   --                        --
│    │    │    │    └─Linear: 5-21                 [321, 1, 3072]            [321, 1, 768]             2,360,064                   1.36%                   --                        757,580,544
│    │    └─ResidualAttentionBlock: 3-8            [321, 1, 768]             [321, 1, 768]             --                             --                   --                        --
│    │    │    └─LayerNorm: 4-29                   [321, 1, 768]             [321, 1, 768]             1,536                       0.00%                   --                        493,056
│    │    │    └─MultiheadAttention: 4-30          [321, 1, 768]             [321, 1, 768]             2,362,368                   1.36%                   --                        --
│    │    │    └─LayerNorm: 4-31                   [321, 1, 768]             [321, 1, 768]             1,536                       0.00%                   --                        493,056
│    │    │    └─Sequential: 4-32                  [321, 1, 768]             [321, 1, 768]             --                             --                   --                        --
│    │    │    │    └─Linear: 5-22                 [321, 1, 768]             [321, 1, 3072]            2,362,368                   1.36%                   --                        758,320,128
│    │    │    │    └─GELU: 5-23                   [321, 1, 3072]            [321, 1, 3072]            --                             --                   --                        --
│    │    │    │    └─Linear: 5-24                 [321, 1, 3072]            [321, 1, 768]             2,360,064                   1.36%                   --                        757,580,544
│    │    └─ResidualAttentionBlock: 3-9            [321, 1, 768]             [321, 1, 768]             --                             --                   --                        --
│    │    │    └─LayerNorm: 4-33                   [321, 1, 768]             [321, 1, 768]             1,536                       0.00%                   --                        493,056
│    │    │    └─MultiheadAttention: 4-34          [321, 1, 768]             [321, 1, 768]             2,362,368                   1.36%                   --                        --
│    │    │    └─LayerNorm: 4-35                   [321, 1, 768]             [321, 1, 768]             1,536                       0.00%                   --                        493,056
│    │    │    └─Sequential: 4-36                  [321, 1, 768]             [321, 1, 768]             --                             --                   --                        --
│    │    │    │    └─Linear: 5-25                 [321, 1, 768]             [321, 1, 3072]            2,362,368                   1.36%                   --                        758,320,128
│    │    │    │    └─GELU: 5-26                   [321, 1, 3072]            [321, 1, 3072]            --                             --                   --                        --
│    │    │    │    └─Linear: 5-27                 [321, 1, 3072]            [321, 1, 768]             2,360,064                   1.36%                   --                        757,580,544
│    │    └─ResidualAttentionBlock: 3-10           [321, 1, 768]             [321, 1, 768]             --                             --                   --                        --
│    │    │    └─LayerNorm: 4-37                   [321, 1, 768]             [321, 1, 768]             1,536                       0.00%                   --                        493,056
│    │    │    └─MultiheadAttention: 4-38          [321, 1, 768]             [321, 1, 768]             2,362,368                   1.36%                   --                        --
│    │    │    └─LayerNorm: 4-39                   [321, 1, 768]             [321, 1, 768]             1,536                       0.00%                   --                        493,056
│    │    │    └─Sequential: 4-40                  [321, 1, 768]             [321, 1, 768]             --                             --                   --                        --
│    │    │    │    └─Linear: 5-28                 [321, 1, 768]             [321, 1, 3072]            2,362,368                   1.36%                   --                        758,320,128
│    │    │    │    └─GELU: 5-29                   [321, 1, 3072]            [321, 1, 3072]            --                             --                   --                        --
│    │    │    │    └─Linear: 5-30                 [321, 1, 3072]            [321, 1, 768]             2,360,064                   1.36%                   --                        757,580,544
│    │    └─ResidualAttentionBlock: 3-11           [321, 1, 768]             [321, 1, 768]             --                             --                   --                        --
│    │    │    └─LayerNorm: 4-41                   [321, 1, 768]             [321, 1, 768]             1,536                       0.00%                   --                        493,056
│    │    │    └─MultiheadAttention: 4-42          [321, 1, 768]             [321, 1, 768]             2,362,368                   1.36%                   --                        --
│    │    │    └─LayerNorm: 4-43                   [321, 1, 768]             [321, 1, 768]             1,536                       0.00%                   --                        493,056
│    │    │    └─Sequential: 4-44                  [321, 1, 768]             [321, 1, 768]             --                             --                   --                        --
│    │    │    │    └─Linear: 5-31                 [321, 1, 768]             [321, 1, 3072]            2,362,368                   1.36%                   --                        758,320,128
│    │    │    │    └─GELU: 5-32                   [321, 1, 3072]            [321, 1, 3072]            --                             --                   --                        --
│    │    │    │    └─Linear: 5-33                 [321, 1, 3072]            [321, 1, 768]             2,360,064                   1.36%                   --                        757,580,544
│    │    └─ResidualAttentionBlock: 3-12           [321, 1, 768]             [321, 1, 768]             --                             --                   --                        --
│    │    │    └─LayerNorm: 4-45                   [321, 1, 768]             [321, 1, 768]             1,536                       0.00%                   --                        493,056
│    │    │    └─MultiheadAttention: 4-46          [321, 1, 768]             [321, 1, 768]             2,362,368                   1.36%                   --                        --
│    │    │    └─LayerNorm: 4-47                   [321, 1, 768]             [321, 1, 768]             1,536                       0.00%                   --                        493,056
│    │    │    └─Sequential: 4-48                  [321, 1, 768]             [321, 1, 768]             --                             --                   --                        --
│    │    │    │    └─Linear: 5-34                 [321, 1, 768]             [321, 1, 3072]            2,362,368                   1.36%                   --                        758,320,128
│    │    │    │    └─GELU: 5-35                   [321, 1, 3072]            [321, 1, 3072]            --                             --                   --                        --
│    │    │    │    └─Linear: 5-36                 [321, 1, 3072]            [321, 1, 768]             2,360,064                   1.36%                   --                        757,580,544
│    └─LayerNorm: 2-4                              [1, 64, 768]              [1, 64, 768]              1,536                       0.00%                   --                        1,536
│    └─Conv2d: 2-5                                 [1, 768, 64, 1]           [1, 12, 64, 1]            9,228                       0.01%                   [1, 1]                    590,592
├─VectorQuantizer: 1-2                             [1, 12, 1, 64]            [1, 12, 1, 64]            --                             --                   --                        --
│    └─Embedding: 2-6                              [64]                      [64, 12]                  49,152                      0.03%                   --                        3,145,728
├─TiTokDecoder: 1-3                                [1, 12, 1, 64]            [1, 1024, 16, 16]         248,064                     0.14%                   --                        --
│    └─Linear: 2-7                                 [1, 64, 12]               [1, 64, 768]              9,984                       0.01%                   --                        9,984
│    └─LayerNorm: 2-8                              [1, 321, 768]             [1, 321, 768]             1,536                       0.00%                   --                        1,536
│    └─ModuleList: 2-15                            --                        --                        (recursive)               (recursive)               --                        --
│    │    └─ResidualAttentionBlock: 3-13           [321, 1, 768]             [321, 1, 768]             --                             --                   --                        --
│    │    │    └─LayerNorm: 4-49                   [321, 1, 768]             [321, 1, 768]             1,536                       0.00%                   --                        493,056
│    │    │    └─MultiheadAttention: 4-50          [321, 1, 768]             [321, 1, 768]             2,362,368                   1.36%                   --                        --
│    │    │    └─LayerNorm: 4-51                   [321, 1, 768]             [321, 1, 768]             1,536                       0.00%                   --                        493,056
│    │    │    └─Sequential: 4-52                  [321, 1, 768]             [321, 1, 768]             --                             --                   --                        --
│    │    │    │    └─Linear: 5-37                 [321, 1, 768]             [321, 1, 3072]            2,362,368                   1.36%                   --                        758,320,128
│    │    │    │    └─GELU: 5-38                   [321, 1, 3072]            [321, 1, 3072]            --                             --                   --                        --
│    │    │    │    └─Linear: 5-39                 [321, 1, 3072]            [321, 1, 768]             2,360,064                   1.36%                   --                        757,580,544
│    │    └─ResidualAttentionBlock: 3-14           [321, 1, 768]             [321, 1, 768]             --                             --                   --                        --
│    │    │    └─LayerNorm: 4-53                   [321, 1, 768]             [321, 1, 768]             1,536                       0.00%                   --                        493,056
│    │    │    └─MultiheadAttention: 4-54          [321, 1, 768]             [321, 1, 768]             2,362,368                   1.36%                   --                        --
│    │    │    └─LayerNorm: 4-55                   [321, 1, 768]             [321, 1, 768]             1,536                       0.00%                   --                        493,056
│    │    │    └─Sequential: 4-56                  [321, 1, 768]             [321, 1, 768]             --                             --                   --                        --
│    │    │    │    └─Linear: 5-40                 [321, 1, 768]             [321, 1, 3072]            2,362,368                   1.36%                   --                        758,320,128
│    │    │    │    └─GELU: 5-41                   [321, 1, 3072]            [321, 1, 3072]            --                             --                   --                        --
│    │    │    │    └─Linear: 5-42                 [321, 1, 3072]            [321, 1, 768]             2,360,064                   1.36%                   --                        757,580,544
│    │    └─ResidualAttentionBlock: 3-15           [321, 1, 768]             [321, 1, 768]             --                             --                   --                        --
│    │    │    └─LayerNorm: 4-57                   [321, 1, 768]             [321, 1, 768]             1,536                       0.00%                   --                        493,056
│    │    │    └─MultiheadAttention: 4-58          [321, 1, 768]             [321, 1, 768]             2,362,368                   1.36%                   --                        --
│    │    │    └─LayerNorm: 4-59                   [321, 1, 768]             [321, 1, 768]             1,536                       0.00%                   --                        493,056
│    │    │    └─Sequential: 4-60                  [321, 1, 768]             [321, 1, 768]             --                             --                   --                        --
│    │    │    │    └─Linear: 5-43                 [321, 1, 768]             [321, 1, 3072]            2,362,368                   1.36%                   --                        758,320,128
│    │    │    │    └─GELU: 5-44                   [321, 1, 3072]            [321, 1, 3072]            --                             --                   --                        --
│    │    │    │    └─Linear: 5-45                 [321, 1, 3072]            [321, 1, 768]             2,360,064                   1.36%                   --                        757,580,544
│    │    └─ResidualAttentionBlock: 3-16           [321, 1, 768]             [321, 1, 768]             --                             --                   --                        --
│    │    │    └─LayerNorm: 4-61                   [321, 1, 768]             [321, 1, 768]             1,536                       0.00%                   --                        493,056
│    │    │    └─MultiheadAttention: 4-62          [321, 1, 768]             [321, 1, 768]             2,362,368                   1.36%                   --                        --
│    │    │    └─LayerNorm: 4-63                   [321, 1, 768]             [321, 1, 768]             1,536                       0.00%                   --                        493,056
│    │    │    └─Sequential: 4-64                  [321, 1, 768]             [321, 1, 768]             --                             --                   --                        --
│    │    │    │    └─Linear: 5-46                 [321, 1, 768]             [321, 1, 3072]            2,362,368                   1.36%                   --                        758,320,128
│    │    │    │    └─GELU: 5-47                   [321, 1, 3072]            [321, 1, 3072]            --                             --                   --                        --
│    │    │    │    └─Linear: 5-48                 [321, 1, 3072]            [321, 1, 768]             2,360,064                   1.36%                   --                        757,580,544
│    │    └─ResidualAttentionBlock: 3-17           [321, 1, 768]             [321, 1, 768]             --                             --                   --                        --
│    │    │    └─LayerNorm: 4-65                   [321, 1, 768]             [321, 1, 768]             1,536                       0.00%                   --                        493,056
│    │    │    └─MultiheadAttention: 4-66          [321, 1, 768]             [321, 1, 768]             2,362,368                   1.36%                   --                        --
│    │    │    └─LayerNorm: 4-67                   [321, 1, 768]             [321, 1, 768]             1,536                       0.00%                   --                        493,056
│    │    │    └─Sequential: 4-68                  [321, 1, 768]             [321, 1, 768]             --                             --                   --                        --
│    │    │    │    └─Linear: 5-49                 [321, 1, 768]             [321, 1, 3072]            2,362,368                   1.36%                   --                        758,320,128
│    │    │    │    └─GELU: 5-50                   [321, 1, 3072]            [321, 1, 3072]            --                             --                   --                        --
│    │    │    │    └─Linear: 5-51                 [321, 1, 3072]            [321, 1, 768]             2,360,064                   1.36%                   --                        757,580,544
│    │    └─ResidualAttentionBlock: 3-18           [321, 1, 768]             [321, 1, 768]             --                             --                   --                        --
│    │    │    └─LayerNorm: 4-69                   [321, 1, 768]             [321, 1, 768]             1,536                       0.00%                   --                        493,056
│    │    │    └─MultiheadAttention: 4-70          [321, 1, 768]             [321, 1, 768]             2,362,368                   1.36%                   --                        --
│    │    │    └─LayerNorm: 4-71                   [321, 1, 768]             [321, 1, 768]             1,536                       0.00%                   --                        493,056
│    │    │    └─Sequential: 4-72                  [321, 1, 768]             [321, 1, 768]             --                             --                   --                        --
│    │    │    │    └─Linear: 5-52                 [321, 1, 768]             [321, 1, 3072]            2,362,368                   1.36%                   --                        758,320,128
│    │    │    │    └─GELU: 5-53                   [321, 1, 3072]            [321, 1, 3072]            --                             --                   --                        --
│    │    │    │    └─Linear: 5-54                 [321, 1, 3072]            [321, 1, 768]             2,360,064                   1.36%                   --                        757,580,544
│    │    └─ResidualAttentionBlock: 3-19           [321, 1, 768]             [321, 1, 768]             --                             --                   --                        --
│    │    │    └─LayerNorm: 4-73                   [321, 1, 768]             [321, 1, 768]             1,536                       0.00%                   --                        493,056
│    │    │    └─MultiheadAttention: 4-74          [321, 1, 768]             [321, 1, 768]             2,362,368                   1.36%                   --                        --
│    │    │    └─LayerNorm: 4-75                   [321, 1, 768]             [321, 1, 768]             1,536                       0.00%                   --                        493,056
│    │    │    └─Sequential: 4-76                  [321, 1, 768]             [321, 1, 768]             --                             --                   --                        --
│    │    │    │    └─Linear: 5-55                 [321, 1, 768]             [321, 1, 3072]            2,362,368                   1.36%                   --                        758,320,128
│    │    │    │    └─GELU: 5-56                   [321, 1, 3072]            [321, 1, 3072]            --                             --                   --                        --
│    │    │    │    └─Linear: 5-57                 [321, 1, 3072]            [321, 1, 768]             2,360,064                   1.36%                   --                        757,580,544
│    │    └─ResidualAttentionBlock: 3-20           [321, 1, 768]             [321, 1, 768]             --                             --                   --                        --
│    │    │    └─LayerNorm: 4-77                   [321, 1, 768]             [321, 1, 768]             1,536                       0.00%                   --                        493,056
│    │    │    └─MultiheadAttention: 4-78          [321, 1, 768]             [321, 1, 768]             2,362,368                   1.36%                   --                        --
│    │    │    └─LayerNorm: 4-79                   [321, 1, 768]             [321, 1, 768]             1,536                       0.00%                   --                        493,056
│    │    │    └─Sequential: 4-80                  [321, 1, 768]             [321, 1, 768]             --                             --                   --                        --
│    │    │    │    └─Linear: 5-58                 [321, 1, 768]             [321, 1, 3072]            2,362,368                   1.36%                   --                        758,320,128
│    │    │    │    └─GELU: 5-59                   [321, 1, 3072]            [321, 1, 3072]            --                             --                   --                        --
│    │    │    │    └─Linear: 5-60                 [321, 1, 3072]            [321, 1, 768]             2,360,064                   1.36%                   --                        757,580,544
│    │    └─ResidualAttentionBlock: 3-21           [321, 1, 768]             [321, 1, 768]             --                             --                   --                        --
│    │    │    └─LayerNorm: 4-81                   [321, 1, 768]             [321, 1, 768]             1,536                       0.00%                   --                        493,056
│    │    │    └─MultiheadAttention: 4-82          [321, 1, 768]             [321, 1, 768]             2,362,368                   1.36%                   --                        --
│    │    │    └─LayerNorm: 4-83                   [321, 1, 768]             [321, 1, 768]             1,536                       0.00%                   --                        493,056
│    │    │    └─Sequential: 4-84                  [321, 1, 768]             [321, 1, 768]             --                             --                   --                        --
│    │    │    │    └─Linear: 5-61                 [321, 1, 768]             [321, 1, 3072]            2,362,368                   1.36%                   --                        758,320,128
│    │    │    │    └─GELU: 5-62                   [321, 1, 3072]            [321, 1, 3072]            --                             --                   --                        --
│    │    │    │    └─Linear: 5-63                 [321, 1, 3072]            [321, 1, 768]             2,360,064                   1.36%                   --                        757,580,544
│    │    └─ResidualAttentionBlock: 3-22           [321, 1, 768]             [321, 1, 768]             --                             --                   --                        --
│    │    │    └─LayerNorm: 4-85                   [321, 1, 768]             [321, 1, 768]             1,536                       0.00%                   --                        493,056
│    │    │    └─MultiheadAttention: 4-86          [321, 1, 768]             [321, 1, 768]             2,362,368                   1.36%                   --                        --
│    │    │    └─LayerNorm: 4-87                   [321, 1, 768]             [321, 1, 768]             1,536                       0.00%                   --                        493,056
│    │    │    └─Sequential: 4-88                  [321, 1, 768]             [321, 1, 768]             --                             --                   --                        --
│    │    │    │    └─Linear: 5-64                 [321, 1, 768]             [321, 1, 3072]            2,362,368                   1.36%                   --                        758,320,128
│    │    │    │    └─GELU: 5-65                   [321, 1, 3072]            [321, 1, 3072]            --                             --                   --                        --
│    │    │    │    └─Linear: 5-66                 [321, 1, 3072]            [321, 1, 768]             2,360,064                   1.36%                   --                        757,580,544
│    │    └─ResidualAttentionBlock: 3-23           [321, 1, 768]             [321, 1, 768]             --                             --                   --                        --
│    │    │    └─LayerNorm: 4-89                   [321, 1, 768]             [321, 1, 768]             1,536                       0.00%                   --                        493,056
│    │    │    └─MultiheadAttention: 4-90          [321, 1, 768]             [321, 1, 768]             2,362,368                   1.36%                   --                        --
│    │    │    └─LayerNorm: 4-91                   [321, 1, 768]             [321, 1, 768]             1,536                       0.00%                   --                        493,056
│    │    │    └─Sequential: 4-92                  [321, 1, 768]             [321, 1, 768]             --                             --                   --                        --
│    │    │    │    └─Linear: 5-67                 [321, 1, 768]             [321, 1, 3072]            2,362,368                   1.36%                   --                        758,320,128
│    │    │    │    └─GELU: 5-68                   [321, 1, 3072]            [321, 1, 3072]            --                             --                   --                        --
│    │    │    │    └─Linear: 5-69                 [321, 1, 3072]            [321, 1, 768]             2,360,064                   1.36%                   --                        757,580,544
│    │    └─ResidualAttentionBlock: 3-24           [321, 1, 768]             [321, 1, 768]             --                             --                   --                        --
│    │    │    └─LayerNorm: 4-93                   [321, 1, 768]             [321, 1, 768]             1,536                       0.00%                   --                        493,056
│    │    │    └─MultiheadAttention: 4-94          [321, 1, 768]             [321, 1, 768]             2,362,368                   1.36%                   --                        --
│    │    │    └─LayerNorm: 4-95                   [321, 1, 768]             [321, 1, 768]             1,536                       0.00%                   --                        493,056
│    │    │    └─Sequential: 4-96                  [321, 1, 768]             [321, 1, 768]             --                             --                   --                        --
│    │    │    │    └─Linear: 5-70                 [321, 1, 768]             [321, 1, 3072]            2,362,368                   1.36%                   --                        758,320,128
│    │    │    │    └─GELU: 5-71                   [321, 1, 3072]            [321, 1, 3072]            --                             --                   --                        --
│    │    │    │    └─Linear: 5-72                 [321, 1, 3072]            [321, 1, 768]             2,360,064                   1.36%                   --                        757,580,544
│    └─LayerNorm: 2-10                             [1, 256, 768]             [1, 256, 768]             1,536                       0.00%                   --                        1,536
│    └─Sequential: 2-11                            [1, 768, 16, 16]          [1, 1024, 16, 16]         --                             --                   --                        --
│    │    └─Conv2d: 3-25                           [1, 768, 16, 16]          [1, 1536, 16, 16]         1,181,184                   0.68%                   [1, 1]                    302,383,104
│    │    └─Tanh: 3-26                             [1, 1536, 16, 16]         [1, 1536, 16, 16]         --                             --                   --                        --
│    │    └─Conv2d: 3-27                           [1, 1536, 16, 16]         [1, 1024, 16, 16]         1,573,888                   0.90%                   [1, 1]                    402,915,328
│    └─Identity: 2-12                              [1, 1024, 16, 16]         [1, 1024, 16, 16]         --                             --                   --                        --
├─TiTokDecoder: 1-4                                [1, 12, 1, 64]            [1, 1024, 16, 16]         (recursive)               (recursive)               --                        --
│    └─Linear: 2-13                                [1, 64, 12]               [1, 64, 768]              (recursive)               (recursive)               --                        9,984
…
│    │    │    └─LayerNorm: 4-143                  [321, 1, 768]             [321, 1, 768]             (recursive)               (recursive)               --                        493,056
│    │    │    └─Sequential: 4-144                 [321, 1, 768]             [321, 1, 768]             (recursive)               (recursive)               --                        --
│    │    │    │    └─Linear: 5-106                [321, 1, 768]             [321, 1, 3072]            (recursive)               (recursive)               --                        758,320,128
│    │    │    │    └─GELU: 5-107                  [321, 1, 3072]            [321, 1, 3072]            --                        (recursive)               --                        --
│    │    │    │    └─Linear: 5-108                [321, 1, 3072]            [321, 1, 768]             (recursive)               (recursive)               --                        757,580,544
│    └─LayerNorm: 2-16                             [1, 256, 768]             [1, 256, 768]             (recursive)               (recursive)               --                        1,536
│    └─Sequential: 2-17                            [1, 768, 16, 16]          [1, 1024, 16, 16]         (recursive)               (recursive)               --                        --
│    │    └─Conv2d: 3-40                           [1, 768, 16, 16]          [1, 1536, 16, 16]         (recursive)               (recursive)               [1, 1]                    302,383,104
│    │    └─Tanh: 3-41                             [1, 1536, 16, 16]         [1, 1536, 16, 16]         --                        (recursive)               --                        --
│    │    └─Conv2d: 3-42                           [1, 1536, 16, 16]         [1, 1024, 16, 16]         (recursive)               (recursive)               [1, 1]                    402,915,328
│    └─Identity: 2-18                              [1, 1024, 16, 16]         [1, 1024, 16, 16]         --                        (recursive)               --                        --
========================================================================================================================================================================================================
Total params: 174,073,612
Trainable params: 174,073,612
Non-trainable params: 0
Total mult-adds (G): 56.17
========================================================================================================================================================================================================
…
